Explainability/models/lenet5_v1_mnist.pth (torch, 250792 bytes, 10 tensors)

feature.0.weight f4 [6, 1, 5, 5]
-0.42187202 -0.51465064 -0.23387901 -0.35762608 -0.24982482 0.13943636 -0.15834104 0.16198859
0.059392307 0.19241251 0.2227492 0.80165 0.9133374 0.90353936 0.5664672 0.28937742
0.5599205 0.11195279 0.14237519 0.085522905 -0.3189456 -0.2861127 -0.28414428 -0.3768554
-0.29966152 0.21742274 0.37816623 0.39040995 0.23654577 0.34924722 0.06335453 -0.37009448
-0.17677432 -0.08174674 0.43688852 -0.21690439 -0.875765 -0.7074 0.07335239 0.27980712
-0.3125419 -0.66389155 -0.5238362 0.039307654 0.3546124 0.2524748 0.010373027 -0.17581415
0.2280828 0.3076601 -0.02586337 -0.04660435 -0.095742054 -0.25888127 -0.22463429 0.31946313
-6.625675e-05 -0.058730874 -0.31793073 -0.20067357 0.29954997 0.64532095 0.5864704 0.23910229
0.03306544 0.028848268 0.50055844 0.8244285 0.7996938 0.49868432 -0.4260494 -0.20420152
0.0579716 0.066228166 -0.011660596 0.50571907 0.28116348 -0.34325138 -0.7222722 -0.3996462
0.29207042 0.039794505 -0.6929976 -0.97211176 -0.052513964 0.092790715 -0.15921535 -1.3924799
-0.28905424 0.44607183 0.21161838 -0.62307453 -0.79001796 -0.16926488 0.43896607 0.11016957
-0.62669265 -0.48044485 0.07127441 0.3939465 0.15599042 0.10646047 -0.029959612 -0.54366845
-0.3816504 -0.27405256 0.039939757 -0.4152326 -0.6731616 -0.25628927 -0.09669835 -0.04207172
-0.07756778 -0.03973772 -0.18501243 0.39277345 0.40926886 0.47241554 0.14514822 0.17802994
0.47648516 0.27723318 0.38238615 0.101469226 0.12163553 -0.3073213 -0.45965588 -0.31225157
-0.0062040654 -0.11174588 -0.5802155 -0.645323 -0.03290536 -0.18665902 0.13128866 -0.33350387
-0.022171106 0.2692875 -0.0042902944 0.046284255 0.0044458215 0.4955067 0.26492667 0.4358612
0.27494237 0.29505005 0.3761025 0.36539766 -0.057927527 0.12399459
00000000: 9cff d7be 25c0 03bf fb7d 6fbe c41a b7be
00000010: 14d2 7fbe 68c8 0e3e 2724 22be 56e0 253e
00000020: 5945 733d c907 453e 5e18 643e ef38 4d3f
00000030: 7bd0 693f 5b4e 673f ff03 113f 4729 943e
00000040: f356 0f3f 8147 e53d cdca 113e a226 af3d
00000050: d64c a3be 5d7d 92be 5c7b 91be 31f3 c0be
00000060: 3c6d 99be 11a4 5e3e 019f c13e d0e3 c73e
00000070: 0e39 723e 88d0 b23e 05c0 813d 067d bdbe
00000080: 5404 35be d66a a7bd daaf df3e 2f1c 5ebe
00000090: 2332 60bf 2b18 35bf c739 963d e142 8f3e
000000a0: 7e05 a0be ccf4 29bf 211a 06bf 1001 213d
000000b0: c28f b53e 6144 813e a1f3 293c a008 34be
000000c0: 8a8e 693e a085 9d3e 6bdf d3bc 34e4 3ebd
000000d0: 6914 c4bd 168c 84be 8806 66be ac90 a33e
000000e0: 52f3 8ab8 c98f 70bd d1c7 a2be 5f7d 4dbe
000000f0: 9d5e 993e c133 253f ed22 163f 3bd7 743e
00000100: a06f 073d 3453 ec3c 9924 003f bf0d 533f
00000110: bcb8 4c3f 8d53 ff3e 2623 dabe 341a 51be
00000120: a173 6d3d a2a2 873d 160c 3fbc ce76 013f
00000130: a9f4 8f3e a5be afbe d5e6 38bf 6d9e ccbe
00000140: 418a 953e 90ff 223d 4a68 31bf 51dc 78bf
00000150: e218 57bd 0f09 be3d 5909 23be c83c b2bf
00000160: ebfe 93be 8763 e43e 7db2 583e d081 1fbf
00000170: 9e3e 4abf c653 2dbe 29c0 e03e 95a0 e13d
00000180: ee6e 20bf defc f5be 51f8 913d 5bb3 c93e
00000190: f4bb 1f3e f207 da3d dc6d f5bc db2d 0bbf
000001a0: ae67 c3be 9e50 8cbe df97 233d 5e99 d4be
000001b0: 5254 2cbf 5938 83be c909 c6bd 6553 2cbd
000001c0: dbdb 9ebd 05c4 22bd e673 3dbe 9a19 c93e
000001d0: b08b d13e 73e0 f13e bca1 143e 7b4d 363e
000001e0: ddf5 f33e 82f1 8d3e 1ec8 c33e 19cf cf3d
000001f0: 0c1c f93d 3859 9dbe 0458 ebbe 70df 9fbe
00000200: 794b cbbb 06db e4bd 0189 14bf e333 25bf
00000210: c5c7 06bd 8b23 3fbe 8970 063e 05c1 aabe
00000220: 2ea0 b5bc 0de0 893e 9995 8cbb 8f94 3d3d
00000230: 41ae 913b 0eb3 fd3e 78a4 873e 3329 df3e
00000240: 3fc5 8c3e cd10 973e 8290 c03e 6715 bb3e
00000250: 6a45 6dbd e0f0 fd3d

feature.0.bias f4 [6]
0.05295543 0.048456848 -0.14559588 0.0016347404 -0.009592508 0.0031635095
00000000: cbe7 583d b07a 463d 1617 15be c944 d63a
00000010: e529 1dbc e252 4f3b

feature.3.weight f4 [16, 6, 5, 5]
-0.029711146 0.14317244 0.020353036 -0.19125713 -0.15558033 0.1525703 0.15379182 -0.015499263
-0.12760498 -0.026736656 0.2091649 -0.042527013 -0.19489269 -0.14569753 -0.17793594 0.25502706
0.32600683 0.13816158 0.08877423 -0.03194286 0.19808309 -0.038017582 0.034212086 -0.10602851
-0.013323286 0.31675628 -0.09939537 -0.052831903 0.16480684 0.43173018 0.093076244 -0.23345356
0.037025515 0.23335224 0.17655563 -0.07381444 0.005765952 0.21251659 0.38860998 0.18476185
-0.062565714 -0.064202726 -0.20739307 -0.14142357 -0.06458816 -0.26854345 -0.047711115 -0.13441926
-0.0688632 -0.07305771 0.17761526 0.14803647 0.00057655206 0.029778704 0.0133386385 0.06659361
0.006346864 -0.042537045 0.02623038 0.02834098 -0.03360911 -0.019842468 -0.058999497 -0.031582776
-0.07443275 0.02252245 0.21105911 0.21223557 0.08101727 0.04430668 -0.085515514 -0.16519155
-0.030400544 0.08211623 0.04738215 0.10848243 0.14717543 0.3922313 0.41971773 0.37420237
-0.07405587 0.123996936 0.19448969 0.14298776 0.23836565 -0.186952 0.11173226 -0.0112417415
-0.06646244 0.104109 -0.16500096 -0.17753118 -0.22184831 -0.178986 0.11691666 -0.18678826
-0.44905436 -0.45042065 -0.17787278 0.0002673586 -0.08190121 -0.06007204 -0.13920704 -0.23183092
-0.31009808 -0.047813922 -0.07567411 -0.048440106 0.05108853 -0.018384233 -0.089863315 0.0323346
0.22011048 0.023051372 -0.030007174 0.25182843 0.47421038 0.55108154 0.22885023 0.07864445
-0.3165831 -0.36144665 -0.340865 -0.178916 -0.007923725 0.19885778 0.15263559 -0.1946813
-0.26757136 -0.22747566 0.3086205 -0.11713611 -0.23511197 -0.055211786 0.12695654 0.17036732
-0.039491758 0.03401158 0.08424245 0.12670821 0.20441425 0.20938888 0.19652234 0.33817533
0.31467223 -0.20332634 -0.27259606 -0.30619618 -0.07416756 0.15466826 0.053273287 0.10558021
0.08467737 0.08825575 0.13772734 0.05441634 0.034257803 0.09252151 -0.034605566 0.05207356
0.064477645 0.20222288 0.4493979 0.29790607 0.37216014 0.5835006 0.8235737 0.8991842
0.6118959 0.51868296 -0.12789215 -0.09919479 -0.17087674 -0.13021347 -0.014442036 0.067725085
-0.032133248 -0.093244985 -0.13015084 -0.15107884 0.030147554 0.32965025 0.19909571 0.06719569
0.085235015 0.10153255 0.19087364 -0.101820454 -0.10676578 -0.038021248 -0.1807351 -0.44580308
-0.60249156 -0.44077516 -0.2744412 -0.027077977 0.096163586 0.22408432 0.15779582 0.32308885
-0.15065584 -0.1666479 -0.18121973 0.009486504 -0.04925445 -0.18280469 -0.22439875 -0.13010417
-0.0490007 0.18346496 0.08645766 0.263645 0.3496313 0.312929 0.20636488 0.35344866
0.4021196 0.34058696 0.16956289 0.026793333 -0.010522853 -0.12634857 -0.06583401 -0.030944
-0.0849311 -0.051359117 0.043422043 0.046209432 0.08399917 0.14324152 0.055716682 -0.0038072448
0.07389115 0.05940019 0.1924907 0.051500924 -0.080219485 -0.077206716 0.13504107 -0.017576694
0.0017845356 -0.10831336 -0.2008496 -0.15990901 -0.12032978 0.10723611 -0.03486531 -0.14885359
-0.027653553 -0.11808071 -0.008868809 -0.08056357 -0.14496651 -0.11561137 -0.09866016 -0.14502606
00000000: ca64 f3bc cc9b 123e 69bb a63c e9d8 43be
00000010: 7350 1fbe 643b 1c3e 9a7b 1d3e 9ff0 7dbc
00000020: e1aa 02be d506 dbbc 532f 563e ce30 2ebd
00000030: f391 47be bc31 15be d734 36be e892 823e
00000040: 5eea a63e 3b7a 0d3e 43cf b53d 84d6 02bd
00000050: 4bd6 4a3e 53b8 1bbd f921 0c3d 7a25 d9bd
00000060: e949 5abc e12d a23e cd8f cbbd 4466 58bd
00000070: 20c3 283e bd0b dd3e c29e be3d 730e 6fbe
00000080: 11a8 173d e4f3 6e3e 00cb 343e 062c 97bd
00000090: 50f0 bc3b f39d 593e e3f7 c63e 3632 3d3e
000000a0: 7422 80bd b87c 83bd d95e 54be 57d1 10be
000000b0: cc46 84bd 877e 89be bb6c 43bd 34a5 09be
000000c0: 2608 8dbd 489f 95bd c6e0 353e df96 173e
000000d0: c123 173a 78f2 f33c 4e8a 5a3c 3b62 883d
000000e0: 5bf9 cf3b 533b 2ebd 18e1 d63c 582b e83c
000000f0: b5a9 09bd ac8c a2bc 75a9 71bd f15c 01bd
00000100: 3370 98bd 0081 b83c e11f 583e 4854 593e
00000110: 62ec a53d ec7a 353d c222 afbd f927 29be
00000120: 900a f9bc 8e2c a83d c913 423d 092c de3d
00000130: 28b5 163e 8ad2 c83e 3ee5 d63e 7497 bf3e
00000140: 9baa 97bd 1bf2 fd3d 4e28 473e 626b 123e
00000150: 2016 743e 5870 3fbe e2d3 e43d 482f 38bc
00000160: 761d 88bd 1937 d53d 03f6 28be bcca 35be
00000170: 342c 63be 1b48 37be 0072 ef3d 6c45 3fbe
00000180: 74ea e5be 899d e6be 4824 36be 442c 8c39
00000190: d2bb a7bd 190e 76bd 4a8c 0ebe 1665 6dbe
000001a0: 2dc5 9ebe 88d8 43bd 07fb 9abd 2269 46bd
000001b0: 3542 513d 889a 96bc 420a b8bd 4971 043d
000001c0: a464 613e 3bd6 bc3c 9bd1 f5bc a8ef 803e
000001d0: b4cb f23e ae13 0d3f b757 6a3e 5710 a13d
000001e0: 2e17 a2be 890f b9be db85 aebe c235 37be
000001f0: 83d2 01bc 60a1 4b3e 814c 1c3e 895a 47be
00000200: 1dff 88be 61ef 68be 8203 9e3e 0fe5 efbd
00000210: 31c1 70be c125 62bd e500 023e c574 2e3e
00000220: 1cc2 21bd ba4f 0b3d 4e87 ac3d ccbf 013e
00000230: f851 513e 0a6a 563e 273d 493e 5125 ad3e
00000240: b81c a13e c834 50be b691 8bbe bfc5 9cbe
00000250: 29e5 97bd 5b61 1e3e 1735 5a3d 703a d83d
00000260: 546b ad3d 6ebf b43d 6508 0d3e abe3 5e3d
00000270: e951 0c3d eb7b bd3d 91be 0dbd 164b 553d
00000280: db0c 843d 8413 4f3e 7b17 e63e 2587 983e
00000290: c68b be3e 4c60 153f bad5 523f f030 663f
000002a0: 36a5 1c3f 68c8 043f 29f6 02be a326 cbbd
000002b0: 50fa 2ebe ae56 05be 4a9e 6cbc 73b3 8a3d
000002c0: 279e 03bd 3af7 bebd 4346 05be 69b4 1abe
000002d0: 01f8 f63c ebc7 a83e bfdf 4b3e e59d 893d
000002e0: b28f ae3d 4cf0 cf3d 6174 433e 3e87 d0bd
000002f0: 04a8 dabd 2bbc 1bbd 9f12 39be 4d40 e4be
00000300: e33c 1abf 48ad e1be 8f83 8cbe a2d2 ddbc
00000310: 6af1 c43d 5c76 653e 3a95 213e e76b a53e
00000320: 8645 1abe bfa5 2abe aa91 39be 486d 1b3c
00000330: 09bf 49bd 2731 3bbe c9c8 65be 073a 05be
00000340: f5b4 48bd 3dde 3b3e b710 b13d 7afc 863e
00000350: e002 b33e 3b38 a03e 5151 533e 39f7 b43e
00000360: 9fe2 cd3e 6a61 ae3e e5a1 2d3e b17d db3c
00000370: 0b68 2cbc 8561 01be fbd3 86bd 467e fdbc
00000380: 5bf0 adbd f05d 52bd 50db 313d 1a46 3d3d
00000390: c207 ac3d e8ad 123e 2d37 643d f882 79bb
000003a0: 3e54 973d 9d4d 733d 481c 453e a2f2 523d
000003b0: 1d4a a4bd 8e1e 9ebd 3548 0a3e 00fd 8fbc
000003c0: 14e7 e93a 65d3 ddbd 84ab 4dbe 30bf 23be
000003d0: 766f f6bd 9b9e db3d edce 0ebd 136d 18be
000003e0: b489 e2bc 4dd4 f1bd 7b4e 11bc 83fe a4bd
000003f0: 1a72 14be a7c5 ecbd 570e cabd b681 14be

feature.3.bias f4 [16]
-0.10654601 -0.037709866 -0.011704065 0.096239515 0.19605234 -0.00080903823 0.06400672 0.07597758
-0.080205515 0.086899996 -0.15348879 0.090895586 0.055926774 0.0137759475 0.06865772 0.06293844
00000000: cb34 dabd a975 1abd 68c2 3fbc 3919 c53d
00000010: f2c1 483e a315 54ba f515 833d 229a 9b3d
00000020: ca42 a4bd a0f8 b13d 2a2c 1dbe 7727 ba3d
00000030: 7913 653d 83b4 613c 6b9c 8c3d dee5 803d

classifier.1.weight f4 [120, 400]
-0.073137596 0.13526419 0.3044249 0.009767819 0.031598635 0.13431592 0.35084602 0.120251365
0.176046 0.00082383724 0.046084847 -0.09939565 -0.03777967 -0.0027716602 -0.13960367 -0.10643415
-0.36677083 0.0018972575 -0.2035937 -0.016853636 0.03238932 0.015508903 -0.08453493 -0.07148047
-0.24799502 -0.16976304 0.01105297 0.0083778305 0.025007043 0.026094906 -0.02471267 0.19785663
0.39623246 0.13068391 0.039938908 0.020154225 0.021172933 0.22270258 -0.11924071 -0.08231756
0.25044194 0.2451789 0.115837246 -0.03466524 -0.07312656 0.24771044 0.008204164 -0.07508243
-0.25966132 -0.09735978 0.08377801 -0.11089717 -0.26614892 -0.17588247 -0.057302374 -0.3218147
-0.19706032 -0.2743661 0.033320177 0.0018892976 -0.10060482 0.10124879 0.13515307 0.21449684
0.23366892 0.21366219 0.12502865 0.34194422 0.18747507 0.11110583 0.1873063 0.12129948
0.016926456 0.119828545 0.22829865 -0.098092966 -0.13011393 0.0738721 -0.122853175 -0.1281734
0.30806723 -0.08169269 -0.15777992 0.00976026 0.07163461 -0.026346473 -0.16047516 -0.1092936
0.06579841 0.0142534925 -0.0010071212 0.13867815 0.05091828 0.046356663 0.14431603 0.10221332
0.21171285 0.30018315 0.079596244 -0.030233335 -0.018424718 0.1746443 0.21275325 0.09664754
-0.033092346 0.017882515 -0.13740021 -0.25478178 -0.20327559 -0.09509962 0.044115093 -0.11282059
-0.18664673 -0.07489931 -0.10252932 0.0028355736 -0.022783099 -0.044682384 -0.0087758675 0.13223024
-0.194073 0.06857835 -0.043771707 0.12936589 -0.029484905 0.13616243 -0.13959734 -0.18055095
-0.09510623 0.058789544 -0.099561065 0.109892994 0.2985957 0.24382511 0.017988231 -0.11063813
0.039725583 0.29177892 0.042211637 0.12634249 -0.16505231 0.09446365 0.20971537 -0.09314883
0.06333281 0.011369165 0.08018498 0.09513549 -0.1187575 0.091790795 -0.09125848 -0.054045632
0.014629113 0.14456911 0.007215122 0.09759429 0.18984424 0.46308365 0.102640815 0.08828309
0.16704087 0.046203583 -0.037230153 -0.18491645 -0.19698071 -0.15305229 -0.10828746 -0.30151883
-0.08341222 0.07416636 0.037236787 -0.050587464 -0.36073756 -0.0056389323 -0.038547304 -0.05430182
-0.06548209 -0.2860898 -0.041908298 0.023096904 -0.12352629 0.07255417 -0.13431446 -0.018452225
0.1931711 0.17655227 0.016314587 0.035861865 0.019594494 0.18718502 0.010831988 0.0058394317
-0.10647965 0.08158063 0.16244352 0.028668987 -0.04169092 -0.07800025 0.11206631 0.26363716
-0.082509816 -0.075069495 0.00043837284 -0.08962843 0.053202346 0.16458039 0.17693502 0.38903266
0.14913984 -0.025559828 0.26738086 -0.09329057 0.018667175 -0.022861265 -0.05882514 0.15191339
0.1100002 -0.03664827 -0.06421274 -0.048461586 -0.060165685 0.009665129 -0.111099884 -0.20592856
0.015395501 -0.027437385 0.023005078 -0.0102117965 0.087527655 0.18278787 -0.14851984 0.11262447
0.302764 0.10306777 0.034752212 -0.07279914 0.050737508 0.22130767 -0.13233955 -0.010261754
0.08763032 0.32255518 -0.017835518 -0.14896429 -0.107205346 0.24802573 0.15733753 -0.11272203
-0.16280434 0.02658015 -0.0877868 -0.11159202 0.06431438 -0.06296528 0.2340344 0.15405543
00000000: 2ac9 95bd b282 0a3e 95dd 9b3e 3409 203c
00000010: 926d 013d 1d8a 093e 17a2 b33e 5946 f63d
00000020: 6745 343e c8f6 573a 77c3 3c3d f28f cbbd
00000030: dbbe 1abd bea4 35bb 44f4 0ebe 26fa d9bd
00000040: 63c9 bbbe 66ad f83a de7a 50be a310 8abc
00000050: aaaa 043d 0e19 7e3c a620 adbd 5a64 92bd
00000060: 68f2 7dbe 5dd6 2dbe 8417 353c 2b43 093c
00000070: 92db cc3c fcc4 d53c 3a72 cabc ee9a 4a3e
00000080: fbde ca3e 01d2 053e fb96 233d 791a a53c
00000090: dc72 ad3c 250c 643e 7934 f4bd 1c96 a8bd
000000a0: ed39 803e 2d10 7b3e 143c ed3d 24fd 0dbd
000000b0: 61c3 95bd cea7 7d3e c26a 063c d1c4 99bd
000000c0: 54f2 84be 9064 c7bd ce93 ab3d 0e1e e3bd
000000d0: ac44 88be 891a 34be e5b5 6abd e5c4 a4be
000000e0: 2eca 49be b779 8cbe bd7a 083d 4fa2 f73a
000000f0: e609 cebd 875b cf3d 9165 0a3e 0fa5 5b3e
00000100: e846 6f3e 43ca 5a3e 8307 003e 5013 af3e
00000110: 77f9 3f3e 748b e33d 39cd 3f3e dd6b f83d
00000120: 5aa9 8a3c ab68 f53d 1fc7 693e f7e4 c8bd
00000130: 963c 05be 414a 973d 729a fbbd e33f 03be
00000140: fdba 9d3e 7f4e a7bd 0f91 21be 7fe9 1f3c
00000150: 2bb5 923d 8fd4 d7bc 9a53 24be 53d5 dfbd
00000160: 51c1 863d 7b87 693c 6101 84ba a501 0e3e
00000170: b08f 503d 7ce0 3d3d 95c7 133e 3855 d13d
00000180: 41cb 583e 9bb1 993e 5b03 a33d e6ab f7bc
00000190: 6fef 96bc f5d5 323e fddb 593e 25ef c53d
000001a0: d78b 07bd 5a7e 923c a4b2 0cbe c272 82be
000001b0: 7a27 50be 97c3 c2bd 07b2 343d 7b0e e7bd
000001c0: 5220 3fbe cf64 99bd e4fa d1bd 08d5 393b
000001d0: 9fa3 babc e004 37bd a8c8 0fbc 5d67 073e
000001e0: 13bb 46be ce72 8c3d f649 33bd 7e78 043e
000001f0: 548a f1bc 2a6e 0b3e 9bf2 0ebe 59e2 38be
00000200: 0ec7 c2bd 4ecd 703d ace6 cbbd 940f e13d
00000210: 89e1 983e 4aad 793e 0e5c 933c 3e96 e2bd
00000220: 4bb7 223d 0c64 953e 1ce6 2c3d ed5f 013e
00000230: 7903 29be 2876 c13d a0bf 563e d0c4 bebd
00000240: a2b4 813d bc45 3a3c 0638 a43d 65d6 c23d
00000250: 2237 f3bd d0fc bb3d bae5 babd f45e 5dbd
00000260: f2ae 6f3c ed09 143e d56c ec3b 84df c73d
00000270: 8766 423e 4d19 ed3e 5935 d23d c4cd b43d
00000280: c30c 2b3e f83f 3d3d a57e 18bd bd5a 3dbe
00000290: 50b5 49be bdb9 1cbe d1c5 ddbd ad60 9abe
000002a0: 07d4 aabd 88e4 973d 9a85 183d cd34 4fbd
000002b0: 98b2 b8be cbc6 b8bb c7e3 1dbd 966b 5ebd
000002c0: 791b 86bd 5d7a 92be 09a8 2bbd b835 bd3c
000002d0: 5afb fcbd 4897 943d bb89 09be 1f29 97bc
000002e0: a5ce 453e 1eca 343e 2ba6 853c e4e3 123d
000002f0: a284 a03c 6ead 3f3e a778 313c b458 bf3b
00000300: 0112 dabd bf13 a73d 9857 263e 39db ea3c
00000310: 19c4 2abd 98be 9fbd 0683 e53d 73fb 863e
00000320: e8fa a8bd 09be 99bd 68d5 e539 1c8f b7bd
00000330: b4ea 593d c387 283e 742e 353e 4a2f c73e
00000340: 1db8 183e d862 d1bc 25e6 883e 200f bfbd
00000350: e7eb 983c 8c47 bbbc a1f2 70bd 2f8f 1b3e
00000360: c947 e13d 7f1c 16bd f881 83bd a87f 46bd
00000370: 4b70 76bd 7d5a 1e3c 5688 e3bd f0de 52be
00000380: 693d 7c3c 5ec4 e0bc 2575 bc3c 614f 27bc
00000390: b341 b33d be2c 3b3e 9615 18be a8a7 e63d
000003a0: e203 9b3e 3215 d33d 5658 0e3d b717 95bd
000003b0: 22d2 4f3d 7a9e 623e 0584 07be ea20 28bc
000003c0: 8677 b33d f425 a53e cb1b 92bc 188a 18be
000003d0: 7a8e dbbd 75fa 7d3e 171d 213e cfda e6bd
000003e0: 2eb6 26be 9dbe d93c 91c9 b3bd 5b8a e4bd
000003f0: 42b7 833d f1f3 80bd b7a6 6f3e b5c0 1d3e

classifier.1.bias f4 [120]
-0.10411968 0.09193649 0.10576854 0.12663884 -0.2057647 -0.14504325 -0.13563773 -0.0685253
0.09203234 -0.0289849 -0.09837934 -0.021497132 -0.01796481 0.19552499 0.14276661 -0.08745511
-0.00388584 -0.119413614 -0.0529406 0.006586267 -0.11733247 0.15276608 -0.09762118 -0.01186044
-0.007356002 -0.14439566 -0.07276972 0.028877724 0.0063513904 0.1061113 -0.038495407 -0.092702
-0.059329025 0.13786623 -0.013154846 0.1724291 -0.10988417 -0.073540226 -0.02789221 -0.069609985
-0.017603863 -0.020677967 0.00045035005 0.15563643 -0.07237126 -0.04439892 -0.18351336 -0.030262182
-0.124404445 -0.12770078 0.048729174 -0.06497869 -0.022703335 -0.12298541 0.01753147 0.11148061
0.004481556 0.027587261 0.020598905 0.09032343 0.18462062 -0.0018699681 -0.015855456 0.1037199
0.11366608 -0.028621502 0.035413954 -0.20077537 -0.002738808 0.02834916 3.647174e-05 -0.0514912
-0.095893614 0.04225873 0.19088006 0.080139264 0.009555166 -0.0635506 -0.013909656 -0.036589075
0.08304766 0.00396042 -0.11579548 0.08476411 -0.058480162 0.08655529 -0.06771617 0.04698305
0.09607894 0.037460983 -0.08085366 0.055623055 0.26210052 -0.06149595 -0.061195157 0.086439304
-0.12013729 -0.040126383 0.036235075 -0.16560659 0.20790635 0.06823255 0.06740352 -0.08132165
-0.12816544 0.03219555 0.04197372 0.009901107 -0.120895796 0.14131027 0.08979663 -0.001866178
-0.09239869 -0.09603788 -0.0283684 0.0067082327 0.09127777 0.057460714 0.1921727 0.045533724
00000000: b33c d5bd 3349 bc3d 2d9d d83d 9dad 013e
00000010: fbb3 52be 3886 14be 9ee4 0abe fe56 8cbd
00000020: 747b bc3d be71 edbc 1b7b c9bd c11a b0bc
00000030: f02a 93bc b437 483e 6931 123e aa1b b3bd
00000040: 94a9 7ebb 208f f4bd 3ed8 58bd 9dd1 d73b
00000050: 024c f0bd b66e 1c3e 9ded c7bd 4a52 42bc
00000060: 9e0a f1bb 75dc 13be 4a08 95bd fa90 ec3c
00000070: 531f d03b e250 d93d 5cad 1dbd 8cda bdbd
00000080: fe02 73bd ce2c 0d3e 6c87 57bc 4191 303e
00000090: f40a e1bd 429c 96bd 347e e4bc ae8f 8ebd
000000a0: fa35 90bc d764 a9bc f61c ec39 285f 1f3e
000000b0: 6237 94bd a4db 35bd edea 3bbe 65e8 f7bc
000000c0: c2c7 febd fec3 02be 3e98 473d 8c13 85bd
000000d0: 58fc b9bc c6df fbbd 289e 8f3c f24f e43d
000000e0: 04da 923b aefe e13c 09bf a83c 7efb b83d
000000f0: 300d 3d3e b819 f5ba 4de3 81bc 196b d43d
00000100: c3c9 e83d a477 eabc 390e 113d 0f98 4dbe
00000110: 937d 33bb 7f3c e83c 3cf9 1838 70e8 52bd
00000120: df63 c4bd 7d17 2d3d 1076 433e 0e20 a43d
00000130: 458d 1c3c d126 82bd 53e5 63bc 6dde 15bd
00000140: e414 aa3d 69c6 813b 2e26 edbd ce98 ad3d
00000150: e588 6fbd e643 b13d c6ae 8abd 4c71 403d
00000160: 09c5 c43d b070 193d 9b96 a5bd 00d5 633d
00000170: 0a32 863e 2de3 7bbd c6a7 7abd 1707 b13d
00000180: 8a0a f6bd 905b 24bd 3b6b 143d c694 29be
00000190: 67e5 543e 82bd 8b3d db0a 8a3d f78b a6bd
000001a0: cd3d 03be 7bdf 033d a3ec 2b3d 4138 223c
000001b0: 3798 f7bd a4b3 103e 4ce7 b73d 8b9a f4ba
000001c0: 863b bdbd 82af c4bd d964 e8bc bcd0 db3b
000001d0: d7ef ba3d ed5b 6b3d ecc8 443e 9281 3a3d

classifier.3.weight f4 [84, 120]
-0.06893146 0.13155441 -0.24038184 -0.2095453 -0.09406208 0.250169 -0.12357295 0.013240904
-0.22838928 -0.14747345 -0.008471228 0.04045527 -0.021490695 -0.014484768 -0.049541976 0.11940439
0.2087867 -0.17101283 0.028713025 -0.2659565 -0.33659685 -0.11043202 0.19932577 0.23593713
0.113842554 -0.033817805 -0.06816297 -0.13120271 -0.22188711 -0.160206 -0.48095676 0.094830364
0.026349077 0.1897542 -0.10435953 0.0705653 0.18729629 0.06438138 0.11430452 0.084008135
0.27365214 -0.087798186 0.07223807 -0.25370842 0.14492877 0.07608487 0.026886351 0.23801371
-0.020964209 -0.25121683 0.09785877 -0.033250354 0.05648724 0.1846423 -0.16094685 0.13928102
0.25178385 0.12794502 0.08080751 0.009563815 0.17122285 0.20416316 -0.12208286 0.017078964
0.022964511 0.14732727 -0.16462076 -0.097190216 0.024946472 -0.09801769 0.21904033 -0.08589086
0.13753271 -0.10397885 -0.23458928 -0.08692934 -0.26452947 -0.2446371 -0.25271788 0.14256746
-0.13678002 0.35364625 -0.13970059 -0.2257023 0.03257555 -0.059019677 0.13482733 0.17995983
0.20595787 -0.011370324 -0.18828818 -0.04167757 -0.022587508 -0.104638934 0.03148338 0.32273948
0.13502662 -0.04885127 0.18322805 0.11970539 -0.122324266 -0.052653447 0.0979183 -0.24994902
0.10729623 0.049852252 -0.043693017 0.026974816 0.09470146 0.08721494 -0.07712827 -0.21352153
-0.21239617 0.21763487 -0.27780372 0.35045356 0.2547559 -0.0028166382 0.3234103 -0.010621853
-0.022834606 -0.027573755 0.17064115 -0.19327343 0.20074779 0.07288015 -0.13688055 0.15889353
0.27945864 -0.04921671 -0.094604746 0.032849595 0.42029572 -0.1391085 -0.26061776 0.13057266
0.06556385 -0.10000427 0.03872573 -0.2597599 0.15118943 0.0840645 0.10666663 0.0725416
0.06610098 0.019053513 0.056203578 -0.080317914 0.06750011 0.02307311 -0.37968385 0.044907864
-0.19962777 0.19753286 -0.2118168 0.0022118886 0.09548424 -0.075064816 0.39772144 -0.1637866
0.058603086 0.046828937 -0.090345815 -0.134498 -0.05098137 0.23955621 0.35749736 -0.02203342
0.10933222 -0.3116163 -0.04153342 0.09407958 0.07854727 0.09854454 0.045852788 0.01336814
0.0933455 0.48263782 -0.13817835 0.14321211 -0.003426452 0.3249749 -0.03894891 -0.129976
0.05380396 0.13787195 -0.3338052 0.0072107613 0.18938519 -0.06414795 -0.08326368 0.20573874
0.12726983 0.051226046 -0.33973965 -0.1640243 -0.02007806 0.10374247 -0.116176404 0.29493824
0.106123224 0.3557976 -0.06993422 0.10871293 0.15383127 -0.17831221 0.15043339 0.13684277
0.35116524 -0.010732317 -0.39160407 0.11615249 -0.291551 0.1427654 -0.24631347 -0.16146098
0.12931976 -0.26587138 -0.18295921 0.17013925 -0.17951047 -0.16154073 -0.1897143 -0.04803574
0.3150825 0.102521725 0.17633401 0.067701116 0.045037005 0.08025353 0.03918024 -0.14409728
-0.10512842 0.15971771 -0.20814416 0.30626592 0.035909653 -0.064000584 -0.23070394 0.030406812
-0.019648762 0.021664787 0.20269017 0.062939726 -0.12668955 0.067353 0.02082725 0.078284375
0.06342733 0.08667328 -0.17168656 0.014289027 0.12588713 -0.036435857 0.09274048 -0.33471683
00000000: f02b 8dbd 33b6 063e a826 76be 0b93 56be
00000010: 9fa3 c0bd 2716 803e d113 fdbd 60f0 583c
00000020: e1de 69be 4803 17be e8ca 0abc 6db4 253d
00000030: 410d b0bc 8551 6dbc 87ec 4abd 4a8a f43d
00000040: 2ecc 553e fd1d 2fbe 9437 eb3c 732b 88be
00000050: 6c56 acbe 2f2a e2bd 0e1c 4c3e 8199 713e
00000060: 4926 e93d 8a84 0abd 0799 8bbd 015a 06be
00000070: 6036 63be 0b0d 24be f73f f6be 6c36 c23d
00000080: 05da d73c ed4e 423e 73ba d5bd 8a84 903d
00000090: 99ca 3f3e 63da 833d 7d18 ea3d 750c ac3d
000000a0: 221c 8c3e 89cf b3bd 8ef1 933d 12e6 81be
000000b0: 3568 143e 62d2 9b3d c440 dc3c deb9 733e
000000c0: 22bd abbc 7e9f 80be 2e6a c83d 8631 08bd
000000d0: 2a5f 673d df12 3d3e 40cf 24be af9f 0e3e
000000e0: d0e9 803e 0504 033e 687e a53d 8cb1 1c3c
000000f0: 0b55 2f3e 2610 513e 9406 fabd 2fe9 8b3c
00000100: 1220 bc3c f6dc 163e 5892 28be aa0b c7bd
00000110: 8b5c cc3c 80bd c8bd 1c4c 603e 8ce7 afbd
00000120: 60d5 0c3e ddf2 d4bd 2c38 70be 0308 b2bd
00000130: 6870 87be 2682 7abe 3d64 81be 34fd 113e
00000140: 1010 0cbe 1f11 b53e ac0d 0fbe 811e 67be
00000150: f16d 053d 9ebe 71bd 2d10 0a3e 6447 383e
00000160: 9fe6 523e 984a 3abc 9ece 40be 1ab6 2abd
00000170: 7009 b9bc f04c d6bd b7f4 003d 1c3e a53e
00000180: 6b44 0a3e 4518 48bd 22a0 3b3e 1928 f53d
00000190: 2585 fabd 24ab 57bd 6489 c83d a3f2 7fbe
000001a0: 20be db3d e031 4c3d 73f7 32bd 4afa dc3c
000001b0: d7f2 c13d bf9d b23d 6df5 9dbd 63a5 5abe
000001c0: 627e 59be addb 5e3e 4a3c 8ebe a66e b33e
000001d0: 5e6f 823e 5997 38bb 0996 a53e 4807 2ebc
000001e0: a40f bbbc 5be2 e1bc 8ebc 2e3e 78e9 45be
000001f0: d490 4d3e 3042 953d 6a2a 0cbe fcb4 223e
00000200: 3415 8f3e 7697 49bd 22c0 c1bd 4c8d 063d
00000210: 0031 d73e 7572 0ebe b16f 85be d7b4 053e
00000220: 5746 863d 0acf ccbd df9e 1e3d 40ff 84be
00000230: 67d1 1a3e 022a ac3d 0974 da3d b190 943d
00000240: f35f 873d 1d16 9c3c b935 663d b87d a4bd
00000250: 7f3d 8a3d d203 bd3c ec65 c2be 4ff1 373d
00000260: 396b 4cbe 0e46 4a3e 81e6 58be 55f5 103b
00000270: 3e8d c33d 95bb 99bd 25a2 cb3e adb7 27be
00000280: ca09 703d b3cf 3f3d 3a07 b9bd d8b9 09be
00000290: d7d1 50bd 394e 753e e509 b73e 6e7f b4bc
000002a0: 92e9 df3d 2c8c 9fbe f31e 2abd cbac c03d
000002b0: 64dd a03d b8d1 c93d 22d0 3b3d 0b06 5b3c
000002c0: ed2b bf3d 4e1c f73e a07e 0dbe 32a6 123e
000002d0: 538e 60bb 1c63 a63e e488 1fbd 6e18 05be
000002e0: 8b61 5c3d 4e2e 0d3e 84e8 aabe 4048 ec3b
000002f0: 31ee 413e 0060 83bd 2686 aabd 2dad 523e
00000300: 0653 023e 67d2 513d 5bf2 adbe fcf5 27be
00000310: be7a a4bc ef76 d43d e5ed edbd 2502 973e
00000320: 2257 d93d 1a2b b63e ac39 8fbd e2a4 de3d
00000330: f285 1d3e 7a97 36be 360b 1a3e 8320 0c3e
00000340: eecb b33e 9ad6 2fbc 5480 c8be 5be1 ed3d
00000350: 2c46 95be 1831 123e 9939 7cbe 0756 25be
00000360: 666c 043e 4b20 88be a959 3bbe fc38 2e3e
00000370: 98d1 37be ef6a 25be 7744 42be 20c1 44bd
00000380: 7e52 a13e e9f6 d13d e790 343e e2a6 8a3d
00000390: b978 383d f65b a43d 767b 203d 3d8e 13be
000003a0: 924d d7bd 0a8d 233e be23 55be e3ce 9c3e
000003b0: 0016 133d bd12 83bd a73d 6cbe b517 f93c
000003c0: 71f6 a0bc 5a7a b13c 038e 4f3e 8be6 803d
000003d0: e8ba 01be 5ff0 893d e99d aa3c 8f53 a03d
000003e0: 30e6 813d c381 b13d 9ace 2fbe 861c 6a3c
000003f0: 8ee8 003e c43d 15bd b9ee bd3d 0160 abbe

classifier.3.bias f4 [84]
-0.08226472 -0.10824361 0.058848705 0.013265412 0.15922962 0.16809933 -0.050601576 0.01633631
0.030090382 -0.14235818 0.19787928 0.0440938 0.029802253 -0.028456055 -0.13217089 -0.02246299
-0.2343077 0.04836977 -0.12913597 0.012739018 -0.075021915 -0.013633926 -0.066626996 0.20791472
-0.14758459 -0.07063193 0.08956174 -0.1332373 -0.02532111 0.25673696 -0.11493826 0.12615465
0.13960195 -0.09149995 0.088393986 -0.13912484 -0.17202619 0.098412186 -0.17832178 0.17196043
0.11439574 -0.050688647 0.045324903 -0.057639536 0.11923316 0.030626453 0.07642051 -0.043144964
-0.045984484 0.049701363 0.0828051 0.17702441 0.08047493 -0.09378886 0.1368456 0.05827078
-0.09877429 -0.1464535 -0.0112693915 -0.043730613 0.03640553 0.09251549 0.009394084 -0.0074385135
-0.17009477 0.06916133 0.08448012 0.034543715 -0.033706993 0.024702301 0.008847538 0.10516742
0.045243055 -0.0116868215 -0.10030842 0.118649915 -0.16412695 -0.18937477 0.23320116 0.15390512
-0.016785923 -0.15718462 0.084272936 -0.05122116
00000000: 687a a8bd d3ae ddbd 570b 713d 2c57 593c
00000010: 170d 233e 3b22 2c3e 9943 4fbd bad3 853c
00000020: 1b80 f63c 58c6 11be dea0 4a3e b39b 343d
00000030: db23 f43c ac1c e9bc ce57 07be 4e04 b8bc
00000040: 5cee 6fbe 611f 463d 383c 04be 50b7 503c
00000050: 17a5 99bd d560 5fbc bc73 88bd 99e7 543e
00000060: 6a20 17be 79a7 90bd 256c b73d 5c6f 08be
00000070: 376e cfbc 0773 833e c064 ebbd af2e 013e
00000080: d0f3 0e3e 5364 bbbd e807 b53d be76 0ebe
00000090: a227 30be 548c c93d fc99 36be 6516 303e
000000a0: 5048 ea3d e69e 4fbd 9ba6 393d 6f17 6cbd
000000b0: 8430 f43d 54e4 fa3c 5b82 9c3d c6b8 30bd
000000c0: 3a5a 3cbd a893 4b3d b895 a93d e345 353e
000000d0: 0ad0 a43d 6014 c0bd 4121 0c3e 57ad 6e3d
000000e0: 2d4a cabd e8f7 15be 41a3 38bc df1e 33bd
000000f0: f71d 153d c378 bd3d a5e9 193c c6be f3bb
00000100: 532d 2ebe 75a4 8d3d ea03 ad3d b67d 0d3d
00000110: 5810 0abd 7b5c ca3c 44f5 103c 0462 d73d
00000120: c850 393d 157a 3fbc 806e cdbd bafe f23d
00000130: e510 28be 76eb 41be 49cc 6e3e 4e99 1d3e
00000140: a282 89bc 01f5 20be 4a97 ac3d 47cd 51bd

classifier.5.weight f4 [10, 84]
-0.40214506 -0.07428941 0.06747731 -0.2660114 -0.0834182 0.10650446 -0.14746921 -0.4010417
-0.5966244 0.47677207 -0.12210819 -0.2568412 0.19349746 -0.018919649 0.022615625 -0.3568517
0.56648666 0.20503835 -0.21446733 0.27173015 -0.020067217 -0.23668191 0.29970327 -0.1498057
0.19229294 -0.059777386 -0.36294088 -0.22474696 -0.16742198 -0.04465362 -0.063536786 -0.20260498
-0.5953941 0.39514092 0.12244539 0.1840626 -0.17862062 0.3045488 0.05584133 -0.35531992
-0.25239316 0.063776754 0.026981104 0.2821558 -0.18873094 0.5003416 -0.043296017 0.49674207
-0.10295425 -0.14905243 -0.41028336 -0.0028851014 0.24541306 0.023022013 -0.43341675 0.29357797
-0.14424635 -0.22806385 -0.09033294 -0.2420975 -0.25274646 -0.30473185 -0.16471584 0.109942645
-0.1485193 0.3295807 -0.2502573 0.18559128 -0.086554736 -0.08378018 -0.09031333 -0.24675797
-0.17032385 0.3646113 0.22990845 -0.19598874 0.08687876 0.16106443 -0.646779 -0.24926952
0.23231876 0.5155144 0.25880426 -0.3549989 -0.2765393 -0.4416236 -0.21470329 -0.034105122
-0.3330134 -0.23298608 -0.519938 -0.4144659 0.057783253 -0.1935674 -0.32363486 0.00985445
-0.22553867 0.15064552 -0.44085377 0.059813373 0.0046449923 -0.2587376 0.16910757 0.097249426
-0.15481749 -0.008367961 0.6110113 0.06672533 -0.35261834 0.38872823 -0.27350605 0.07870973
0.2999954 0.3754281 0.30168128 0.4459819 0.06813129 0.20244335 -0.43552423 -0.15166737
-0.6088703 -0.2783122 -0.36459407 0.10163362 0.2298005 -0.31953573 -0.34395522 -0.21237339
-0.068177655 0.39767608 0.505598 -0.081063636 0.31600296 0.39972872 0.028722685 0.044602223
-0.2180768 -0.32924715 -0.107926786 0.4325286 0.34221068 -0.13752986 -0.1869511 -0.019957082
0.1921633 0.21170542 0.39294547 -0.023563728 0.1807152 0.41502386 0.30937105 -0.36645085
0.27726382 0.33362725 0.19088347 -0.36835542 -0.3401743 -0.15762642 -0.3411345 -0.17490846
-0.26812178 -0.39202622 -0.10511314 -0.06271095 -0.24554993 -0.041313317 -0.10759639 -0.39022756
-0.39970866 -0.53634685 -0.34193492 0.53122264 -0.05116296 -0.09972132 0.22874662 0.21963954
0.081887215 0.33153307 0.0769205 -0.36539808 0.28671566 -0.23426688 0.2510127 -0.42470828
-0.38096693 0.11883392 -0.28681254 -0.32683402 -0.030580716 0.24506976 0.2989172 0.10526902
0.34803456 0.2247165 -0.3254548 -0.388887 -0.07222277 0.40199485 -0.17741421 -0.13782752
0.04838523 -0.32513666 0.5954706 0.15409854 0.31088543 0.36459678 -0.19498263 0.014525378
0.36426747 -0.075820476 -0.38609484 0.36404946 0.29632977 0.24526772 -0.20330559 -0.33474997
0.17053963 -0.2016021 0.43247795 -0.20491788 0.4512503 0.3324759 0.2682973 -0.07729355
-0.24126147 0.119788095 -0.185558 -0.07990554 0.26270002 -0.19922592 -0.26664472 -0.37291154
0.02347452 0.30069315 0.23161265 -0.29807267 -0.37840673 -0.38133696 0.2088998 0.098686986
-0.18185152 0.30178535 -0.22451557 0.03425848 -0.39461747 -0.40451363 0.16751423 0.48940483
0.23615845 -0.30884066 0.12939249 -0.0170577 0.4556075 0.27686745 0.28557462 -0.123052865
00000000: f5e5 cdbe 0c25 98bd 8b31 8a3d a532 88be
00000010: 29d7 aabd 031f da3d 2b02 17be 5655 cdbe
00000020: 60bc 18bf 781b f43e dc13 fabd b180 83be
00000030: 3324 463e 61fd 9abc 6744 b93c 44b5 b6be
00000040: 4505 113f 93f5 513e 539d 5bbe 3720 8b3e
00000050: 0164 a4bc be5c 72be b572 993e aa66 19be
00000060: 71e8 443e 22d9 74bd 63d3 b9be 1124 66be
00000070: ab70 2bbe b7e6 36bd 931f 82bd ae77 4fbe
00000080: bf6b 18bf e94f ca3e a6c4 fa3d e87a 3c3e
00000090: 53e8 36be d2ed 9b3e e1b9 643d 7eec b5be
000000a0: ad39 81be 639d 823d 7a07 dd3c ba76 903e
000000b0: af42 41be 6316 003f 2a57 31bd fa54 fe3e
000000c0: aed9 d2bd 33a1 18be a910 d2be f813 3dbb
000000d0: 904d 7b3e a998 bc3c cde8 ddbe da4f 963e
000000e0: 51b5 13be 9289 69be 7a00 b9bd 68e8 77be
000000f0: fc67 81be d005 9cbe 45ab 28be 9c29 e13d
00000100: 7215 18be cdbe a83e ba21 80be a40b 3e3e
00000110: 9c43 b1bd f194 abbd 32f6 b8bd 1fae 7cbe
00000120: 6069 2ebe 55ae ba3e 1f6d 6b3e 46b1 48be
00000130: 7eed b13d 13ee 243e 4f93 25bf 8240 7fbe
00000140: f8e4 6d3e c0f8 033f fe81 843e 6ac2 b5be
00000150: 8f96 8dbe 7d1c e2be 2edb 5bbe d0b1 0bbd
00000160: bb80 aabe e793 6ebe a81a 05bf e034 d4be
00000170: 22ae 6c3d 8836 46be 78b3 a5be 8f74 213c
00000180: 9cf3 66be d242 1a3e 96b7 e1be defe 743d
00000190: 0535 983b 4179 84be 892a 2d3e b52a c73d
000001a0: 7a88 1ebe c619 09bc 3d6b 1c3f 4aa7 883d
000001b0: 648a b4be 6307 c73e fc08 8cbe 9132 a13d
000001c0: ff98 993e 1d38 c03e f875 9a3e bd57 e43e
000001d0: 6b88 8b3d 4f4d 4f3e 08fd debe b14e 1bbe
000001e0: edde 1bbf f07e 8ebe 13ac babe 4a25 d03d
000001f0: d350 6b3e 309a a3be e61a b0be 6978 59be
00000200: baa0 8bbd 339c cb3e df6e 013f b104 a6bd
00000210: 24cb a13e 3ea9 cc3e d64b eb3c d2b0 363d
00000220: 864f 5fbe 1593 a8be b808 ddbd 6374 dd3e
00000230: 3d36 af3e a1d4 0cbe 1c70 3fbe 097d a3bc
00000240: 75c6 443e 4ec9 583e 2630 c93e b808 c1bc
00000250: 680d 393e 027e d43e e265 9e3e 729f bbbe
00000260: 86f5 8d3e 31d1 aa3e f576 433e 1599 bcbe
00000270: 532b aebe d268 21be 2ea9 aebe 341b 33be
00000280: 4247 89be a9b7 c8be 8f45 d7bd 996e 80bd
00000290: 7171 7bbe 2738 29bd 7f5b dcbd e8cb c7be
000002a0: 9da6 ccbe 074e 09bf 1812 afbe 35fe 073f
000002b0: 4090 51bd b13a ccbd 8e3c 6a3e 30e9 603e
000002c0: 7cb4 a73d b4be a93e 7f88 9d3d 7515 bbbe
000002d0: 65cc 923e a8e3 6fbe bd84 803e 5d73 d9be
000002e0: 190e c3be 335f f33d 18d9 92be ca56 a7be
000002f0: 6984 fabc 91f3 7a3e ad0b 993e 4997 d73d
00000300: 9631 b23e 151c 663e 03a2 a6be 321c c7be
00000310: 88e9 93bd 45d2 cd3e 12ac 35be a822 0dbe
00000320: 972f 463d 5078 a6be c370 183f 02cc 1d3e
00000330: 602c 9f3e 6eac ba3e 87a9 47be dafb 6d3c
00000340: 4481 ba3e c447 9bbd 39ae c5be b164 ba3e
00000350: 89b8 973e 7627 7b3e 572f 50be 5964 abbe
00000360: f1a1 2e3e c870 4ebe c06d dd3e fed5 51be
00000370: 480a e73e 483a aa3e 445e 893e 154c 9ebd
00000380: 3f0d 77be 7653 f53d eb02 3ebe 84a5 a3bd
00000390: 9e80 863e e101 4cbe a885 88be 43ee bebe
000003a0: a34d c03c 74f4 993e de2b 6d3e fb9c 98be
000003b0: 87be c1be 993e c3be d4e9 553e 671c ca3d
000003c0: 4937 3abe 9c83 9a3e 69e7 65be 9f52 0c3d
000003d0: 4d0b cabe 691c cfbe da88 2b3e 4593 fa3e
000003e0: 85d3 713e 5d20 9ebe 777f 043e 97bc 8bbc
000003f0: 6345 e93e 92c1 8d3e d636 923e 2403 fcbd

classifier.5.bias f4 [10]
-0.090177916 0.10568952 0.07174724 0.019919068 -0.13314435 0.043160338 -0.16078463 0.15843454
-0.24256422 0.069360375
00000000: 33af b8bd bf73 d83d 38f0 923d 502d a33c
00000010: fe56 08be e5c8 303d baa4 24be aa3c 223e
00000020: c162 78be d00c 8e3d
