Explainability/models/LENeT5_mnist.pth (torch, 250814 bytes, 10 tensors)

feature.0.weight f4 [6, 1, 5, 5]
-0.25366527 -0.5042758 -0.46021324 -0.15489383 -0.013065145 -0.038303114 -0.36961904 -0.07583528
-0.13647984 0.007881133 -0.010549489 -0.22773868 0.19403404 -0.10357776 0.09905736 0.16037963
0.2036178 0.055751607 0.23780078 0.23956123 0.07728368 0.008023248 0.26726326 0.28307158
0.24983934 -0.24997078 -0.081630394 -0.07298981 -0.3036026 -0.42313838 -0.056859795 0.038893096
0.040952697 -0.40683982 -0.39722967 -0.017243715 -0.1277137 0.033986714 -0.33468735 -0.03244759
0.0132308975 -0.07290351 0.060411327 -0.24316022 0.012840124 -0.14477703 0.10186534 0.09711218
-0.0006827959 -0.04084885 0.13773297 0.15291546 0.21235476 0.25851685 -0.11189493 -0.17612568
-0.13123673 -0.07750731 -0.18844141 0.032486767 -0.15785076 -0.057915535 -0.14000897 -0.43336722
-0.083152585 -0.27717578 -0.33449042 -0.5477007 -0.4194698 0.013961518 0.104062684 0.04623708
-0.19401564 -0.106089376 -0.02069981 0.097993076 0.100699335 0.031275935 0.032646656 0.14331442
0.14860106 -0.061109513 -0.021026425 0.091753416 0.21322206 -0.22102575 0.10314422 -0.17214344
-0.04104824 0.20833442 -0.176278 -0.38466647 -0.061617434 -0.12992762 -0.10010878 -0.40181053
-0.3985438 -0.09655309 -0.19123676 -0.13190241 -0.045018505 -0.038480382 0.06102534 0.26563665
0.015617197 0.3529786 0.18409474 0.28006697 0.06771237 0.12899469 0.21342003 -0.035790388
0.17216358 -0.19808824 -0.30606508 0.1505599 -0.023380501 -0.03421806 -0.34042758 -0.47665375
0.06751077 0.034156524 -0.05235516 -0.31269082 -0.39319903 0.22807375 -0.035912335 0.30275542
0.15499564 0.18905953 0.24671346 0.4288935 0.16645165 0.1129744 0.11955332 0.043809354
0.26264387 0.46111813 0.24486607 0.2162363 0.27338135 0.35823902 0.28403872 0.20130095
-0.079542525 0.23514749 0.0013539607 -0.112167105 -0.08508754 -0.18928902
00000000: 6ae0 81be 3818 01bf 12a1 ebbe 7d9c 1ebe
00000010: 310f 56bc bae3 1cbd b53e bdbe 874f 9bbd
00000020: 5fc1 0bbe de1f 013c c4d7 2cbc 5434 69be
00000030: dcb0 463e 9420 d4bd 96de ca3d 8f3a 243e
00000040: 2f81 503e cc5b 643d 0c82 733e 8a4f 753e
00000050: e846 9e3d f173 033c bbd6 883e c2ee 903e
00000060: e2d5 7f3e 57f8 7fbe d62d a7bd ae7b 95bd
00000070: cd71 9bbe 98a5 d8be d1e5 68bd 5e4e 1f3d
00000080: 04be 273d 4f4d d0be b061 cbbe b142 8dbc
00000090: 61c7 02be a735 0b3d 245c abbe c4e7 04bd
000000a0: 68c6 583c 6f4e 95bd de71 773d fefe 78be
000000b0: 625f 523c 6e40 14be c69e d03d c0e2 c63d
000000c0: a8fd 32ba 2051 27bd df09 0d3e df95 1c3e
000000d0: 8773 593e 525c 843e 2b29 e5bd 4a5a 34be
000000e0: ec62 06be 27bc 9ebd c9f6 40be d810 053d
000000f0: a1a3 21be d738 6dbd 835e 0fbe 4fe2 ddbe
00000100: e74b aabd fce9 8dbe 5442 abbe 1d36 0cbf
00000110: bfc4 d6be dabe 643c d11e d53d 1863 3d3d
00000120: 09ac 46be 6345 d9bd a692 a9bc 98b0 c83d
00000130: 743b ce3d 321b 003d 80b8 053d 04c1 123e
00000140: e02a 183e f84d 7abd 9c3f acbc 37e9 bb3d
00000150: e256 5a3e 9354 62be 473d d33d 5f46 30be
00000160: 3322 28bd 9e55 553e 3882 34be 01f3 c4be
00000170: 9062 7cbd bf0b 05be d505 cdbd 1cba cdbe
00000180: ef0d ccbe a0bd c5bd 92d3 43be 6d11 07be
00000190: 5365 38bd 9b9d 1dbd b5f5 793d 8701 883e
000001a0: 46df 7f3c 9cb9 b43e 5583 3c3e f064 8f3e
000001b0: c8ac 8a3d 2f17 043e c88a 5a3e f198 12bd
000001c0: a64b 303e a5d7 4abe 90b4 9cbe 602c 1a3e
000001d0: 7788 bfbc 3d28 0cbd 864c aebe f60b f4be
000001e0: 1643 8a3d b6e7 0b3d 5d72 56bd 0319 a0be
000001f0: 6251 c9be 2a8c 693e d018 13bd c202 9b3e
00000200: 2db7 1e3e d298 413e 74a2 7c3e ee97 db3e
00000210: 4d72 2a3e 1f5f e73d 5fd8 f43d 7071 333d
00000220: 4279 863e ad17 ec3e 2cbe 7a3e 0c6d 5d3e
00000230: a4f8 8b3e 1b6b b73e 866d 913e d621 4e3e
00000240: 31e7 a2bd 81ca 703e 6277 b13a deb7 e5bd
00000250: 6042 aebd fbd4 41be

feature.0.bias f4 [6]
-0.006115679 0.09432605 -0.032811705 0.12129724 0.1156311 -0.057119034
00000000: 0966 c8bb 042e c13d 9165 06bd b06a f83d
00000010: 00d0 ec3d a6f5 69bd

feature.3.weight f4 [16, 6, 5, 5]
0.07884686 -0.07939678 -0.039967984 -0.1474638 -0.21578738 0.09163326 0.0044924896 -0.1695904
-0.21919994 -0.2407849 0.19294521 0.3118399 0.2684528 0.26217872 0.03968444 -0.08989143
0.002986828 0.06412082 0.18991485 0.19537811 -0.23893559 -0.2243418 -0.21887122 -0.19679148
0.04981738 -0.050146442 -0.06572121 0.053333238 0.026348384 0.0248843 -0.04648452 0.08756923
0.07453087 0.06434353 -0.0046438007 -0.08655813 -0.0042243334 0.11206254 0.09795293 0.07382324
-0.13500081 -0.11165518 -0.065367974 0.019124195 0.115771376 -0.048208375 -0.16431454 -0.069568135
-0.13716798 -0.04427968 0.060755704 0.07973037 -0.054679837 0.06457691 -0.048094213 -0.08585361
-0.0015570653 0.0011568406 0.08359991 0.114570595 -0.19409002 -0.19710198 -0.14995031 -0.08921188
0.031181771 -0.14075294 -0.1585172 -0.19682018 -0.23479642 -0.032205626 0.04269832 0.023290372
0.024742624 -0.11012174 -0.06287334 -0.048226465 -0.012181047 0.12761134 0.10084688 0.042659763
-0.03533379 -0.0371811 -0.0617546 0.12815323 0.14180453 -0.22061102 -0.240186 -0.32214
-0.18961155 -0.121412575 0.01607784 -0.0577082 -0.1526885 -0.20910685 -0.12775907 0.086826265
0.006527946 0.022741843 -0.0935104 -0.21543573 0.092970155 0.032033652 0.15347129 0.17230079
0.029012373 0.111711256 0.11198111 0.18720876 0.1474993 0.12916853 -0.04862708 -0.2355595
-0.114305004 0.09593977 0.1769894 0.08103524 0.02459583 -0.07817029 -0.07159794 -0.05237816
0.11240498 0.1560717 -0.11708984 -0.04341921 -0.017384335 -0.012313339 0.028981548 -0.02414976
0.018654784 -0.050048664 -0.081723474 -0.036884718 0.024560906 -0.02044422 0.00040255205 0.030205514
0.0405312 -0.017623913 -0.037309792 -0.014484677 0.08036063 0.09240069 0.20144182 0.18465035
0.021247283 0.13858166 0.05068777 0.0522393 0.10475932 0.15127848 0.045854032 0.08790035
-0.013024115 -0.14832903 -0.008312342 0.15153126 0.12858208 0.044168405 0.23606227 0.23566629
-0.020000989 -0.14008701 -0.06484457 0.21826915 0.22809295 -0.16105102 -0.16199629 -0.12666757
0.13954529 0.094614305 0.05059464 -0.15604642 -0.07464242 -0.041940562 -0.005870585 0.002691566
0.13233933 0.032559477 0.045421727 0.16351557 -0.0031952232 0.013216158 0.00022077776 0.16499709
0.10767694 -0.20033439 -0.09136517 -0.0048862323 0.06423959 0.026420224 -0.15360135 -0.19049849
-0.024987979 -0.04658785 0.002370875 0.089463755 -0.07175896 0.004165047 -0.1676133 -0.031551972
-0.075647905 -0.045100775 0.11610477 0.13215737 0.09988208 -0.056889202 -0.24066444 -0.118172355
-0.005046406 0.090412 -0.033876855 -0.14679638 -0.18276437 -0.020540338 -0.029311111 0.012490089
-0.0940649 0.013114493 -0.10719352 -0.10669819 -0.022881093 0.04375735 0.05503315 -0.13358095
-0.075298786 -0.138834 -0.0018018861 -0.070615105 0.18585259 0.1747281 -0.13612482 -0.19215395
-0.13180979 -0.018846337 -0.04133606 0.13594647 -0.012809646 -0.05153212 -0.0109794885 0.033455864
0.12924273 0.10562073 0.046352573 -0.032772135 -0.04260075 0.2086948 0.17335586 0.10393986
0.09024681 -0.123309776 -0.05138725 0.05586542 0.03103634 0.12127557 0.020119961 -0.15303324
00000000: 767a a13d c79a a2bd 78b5 23bd c000 17be
00000010: 5ef7 5cbe 38aa bb3d bc35 933b 1ba9 2dbe
00000020: f375 60be 5190 76be 6e93 453e 7ba9 9f3e
00000030: a572 893e 4a3c 863e 278c 223d 0019 b8bd
00000040: a9be 433b c751 833d 0a79 423e 3311 483e
00000050: 88ab 74be dbb9 65be c71f 60be b583 49be
00000060: 4f0d 4c3d 5b66 4dbd d798 86bd f473 5a3d
00000070: 91d8 d73c 29da cb3c 8d66 3ebd 7f57 b33d
00000080: a4a3 983d 8ac6 833d 062b 98bb 6445 b1bd
00000090: 476c 8abb 0c81 e53d 8c9b c83d a430 973d
000000a0: a73d 0abe 79ab e4bd a5df 85bd 58aa 9c3c
000000b0: 8b19 ed3d 2576 45bd 1242 28be bd79 8ebd
000000c0: c375 0cbe 9c5e 35bd f9da 783d ad49 a33d
000000d0: f7f7 5fbd e640 843d 70fe 44bd 04d4 afbd
000000e0: 7116 ccba 21a1 973a 6e36 ab3d fda3 ea3d
000000f0: 89bf 46be 1ad5 49be 938c 19be b8b4 b6bd
00000100: ea70 ff3c 8a21 10be 5552 22be 3b8b 49be
00000110: 796e 70be 0cea 03bd 6fe4 2e3d 73cb be3c
00000120: 0bb1 ca3c 8287 e1bd bdc3 80bd 1d89 45bd
00000130: 0493 47bc 8cac 023e cf88 ce3d 01bc 2e3d
00000140: 2aba 10bd 364b 18bd 64f2 7cbd 9a3a 033e
00000150: 3535 113e dbe7 61be 52f3 75be 89ef a4be
00000160: 8829 42be 28a7 f8bd adb5 833c 6f5f 6cbd
00000170: 605a 1cbe 1b20 56be 46d3 02be f8d1 b13d
00000180: 61e8 d53b 1a4d ba3c 6182 bfbd 2f9b 5cbe
00000190: 2367 be3d b835 033d 9427 1d3e 9e6f 303e
000001a0: 5bab ed3c dfc8 e43d 5a56 e53d a7b3 3f3e
000001b0: 0e0a 173e c144 043e 302d 47bd 8236 71be
000001c0: be18 eabd 127c c43d b63c 353e cef5 a53d
000001d0: 327d c93c bf17 a0bd f1a1 92bd 7b8a 56bd
000001e0: 9534 e63d 42d1 1f3e cccc efbd 57d8 31bd
000001f0: 9869 8ebc e3bd 49bc b66a ed3c b8d5 c5bc
00000200: ebd1 983c d4ff 4cbd a35e a7bd 6e14 17bd
00000210: f433 c93c a37a a7bc 9f0d d339 8e71 f73c
00000220: 0b04 263d 0660 90bc 27d2 18bd 2451 6dbc
00000230: 1d94 a43d 933c bd3d c446 4e3e fb14 3d3e
00000240: c80e ae3c 5ae8 0d3e fb9d 4f3d e0f8 553d
00000250: 0e8c d63d bfe8 1a3e 70d1 3b3d 1905 b43d
00000260: 1963 55bc 91e3 17be 7d30 08bc 032b 1b3e
00000270: 05ab 033e eee9 343d 4fba 713e 8152 713e
00000280: 1dd9 a3bc f872 0fbe 3bcd 84bd f381 5f3e
00000290: 3391 693e 8fea 24be 5be2 25be 25b5 01be
000002a0: f6e4 0e3e 25c5 c13d 533c 4f3d a2ca 1fbe
000002b0: 20de 98bd dec9 2bbd 095e c0bb fc64 303b
000002c0: f683 073e 165d 053d 220c 3a3d a070 273e
000002d0: f366 51bb 9688 583c 9480 6739 fff4 283e
000002e0: ba85 dc3d 7524 4dbe aa1d bbbd b01c a0bb
000002f0: 0c90 833d 3a6f d83c ac49 1dbe 0912 43be
00000300: 97b3 ccbc e7d2 3ebd af60 1b3b c638 b73d
00000310: 5df6 92bd f27a 883b d2a2 2bbe a43c 01bd
00000320: 4aed 9abd 97bb 38bd 56c8 ed3d 4354 073e
00000330: fa8e cc3d a704 69bd bd70 76be 5904 f2bd
00000340: 525c a5bb ed29 b93d 75c2 0abd ca51 16be
00000350: 9526 3bbe 3644 a8bc db1d f0bc 3ba3 4c3c
00000360: 19a5 c0bd 2cde 563c 4788 dbbd 9584 dabd
00000370: 2171 bbbc e83a 333d 716a 613d 72c9 08be
00000380: 4036 9abd 802a 0ebe 442d ecba a79e 90bd
00000390: 2450 3e3e eceb 323e 4e64 0bbe 01c4 44be
000003a0: 25f9 06be a263 9abc 0050 29bd 8d35 0b3e
000003b0: 8ddf 51bc 5813 53bd 50e3 33bc 0409 093d
000003c0: 3558 043e ae4f d83d 32dc 3d3d 133c 06bd
000003d0: 207e 2ebd 17b4 553e 3384 313e 6cde d43d
000003e0: 52d3 b83d d689 fcbd 707b 52bd 23d3 643d
000003f0: ec3f fe3c 535f f83d 9ed2 a43c bfb4 1cbe

feature.3.bias f4 [16]
-0.080846384 0.07722445 -0.00862089 0.05714149 -0.06587128 -0.052837115 -0.0928157 0.1486256
-0.07413831 -0.096810825 -0.014144284 0.074231 -0.018416286 0.066153556 0.08970293 0.0863261
00000000: ca92 a5bd da27 9e3d a23e 0dbc 320d 6a3d
00000010: 86e7 86bd bb6b 58bd 2816 bebd 4f31 183e
00000020: d4d5 97bd c144 c6bd 6dbd 67bc 6c06 983d
00000030: c0dd 96bc 847b 873d 2bb6 b73d bdcb b03d

classifier.1.weight f4 [120, 400]
0.04406587 -0.06845275 0.018391797 -0.025126176 -0.0036974268 -0.057758845 -0.06179961 -0.08177017
0.034563057 0.0283633 0.009691549 0.07686008 -0.08144429 0.025006587 0.03375504 0.035129633
-0.05046044 -0.06507138 -0.008935697 0.0054315277 0.0062518576 0.08582661 0.033986535 0.06327309
-0.028946515 -0.03386853 0.042874772 0.0024614073 -0.035900533 0.0051629664 -0.04758792 0.02924532
0.050400063 0.012593158 -0.006075212 0.0014765667 -0.037373263 -0.0052099107 -0.041226897 0.03879449
0.05934964 -1.6119757e-05 0.05740479 -0.036705617 0.060327146 -0.022479055 0.0073259007 -0.022766218
-0.03611407 -0.008434423 -0.031222258 -0.006388413 0.00067590264 0.054274924 0.07042559 -0.04886258
-0.042062443 0.0063090054 -0.001124846 0.03223703 -0.023448287 0.031579588 -0.064998254 0.09050423
0.057974905 -0.056789484 -0.05816423 -0.042727824 -0.015035892 -0.051234897 0.017165743 0.012308366
-0.045640204 0.038975846 0.06050346 -0.016379632 -0.019505186 -0.054448813 0.008415905 0.022707717
-0.05187931 -0.026196407 -0.119240485 0.04365507 0.009127906 -0.018609107 -0.014996926 -0.03063126
0.0514645 0.0027392 -0.05526057 -0.05057345 0.004347073 -0.07272694 -0.043313358 -0.0406228
-0.027727563 -0.021184407 -0.07087542 -0.012237354 0.025274284 -0.014330038 -0.013805516 0.10023355
0.08617851 0.040393163 -0.027378052 -0.021646509 0.012398771 0.07978299 0.013345682 0.004443011
0.0052165193 -0.0024688852 0.08840366 0.010511539 0.0040360307 -0.024592914 -0.0524754 -0.025228342
-0.12256423 -0.049811196 -0.057994943 -0.042391628 -0.065068044 -0.018137481 0.054214325 -0.0016022687
0.088085644 0.008612923 0.017971888 -0.00015906333 0.10212936 0.02556068 0.003342439 -0.031086866
0.014566576 -0.07433138 0.0154929245 -0.004198939 -0.027410345 0.013974664 -0.05577158 0.032353904
0.094694294 -0.006767559 -0.05073115 -0.01668261 -0.06950292 -0.08705056 -0.008797483 -0.009644871
-0.07957004 -0.04366139 -0.013031217 0.002192569 0.01793732 0.01821264 0.031068511 0.054233007
0.012612406 0.014158585 0.033706225 0.027741257 0.00465104 0.00465716 -0.043364618 -0.03393928
-0.066757366 0.011204866 0.03164397 -0.010293224 0.0107160285 -0.028137268 -0.05321875 -0.024741469
-0.034863416 0.0077030514 0.0790233 0.020717742 -0.02520916 -0.08423013 -0.12237258 0.019254358
0.06293977 -0.039545648 -0.03401944 -0.087713614 0.007951078 0.05303975 0.06367119 0.035323627
-0.08502713 -0.0012308819 0.045329377 0.060568742 0.044840585 -0.027273916 -0.023342276 0.033028916
0.019574763 -0.053609904 -0.050290942 0.038666546 0.11321377 -0.03551926 0.055985123 0.055398658
0.011763912 -0.024623336 0.009011141 -0.07101115 0.04906821 -0.038436785 -0.042476628 -0.064038634
0.00029633628 0.017370256 0.07701688 -0.0139590455 0.05015187 0.02676708 0.09251172 0.056366183
0.1397262 0.0062645944 -0.08293583 -0.06614173 0.032620788 0.099529885 0.05135785 -0.0273401
0.0027777348 0.013684326 0.010847411 0.036045495 -0.036133602 -0.0091878995 -0.037141852 -0.050985377
-0.06961435 -0.05850633 0.006291009 0.00091790344 -0.005746497 0.04170773 0.043376926 -0.05951586
0.012637447 -0.06824637 0.03954643 -0.0060783136 0.03309063 -0.059602696 -0.010685263 -0.0015804744
00000000: 6a7e 343d f530 8cbd 65aa 963c 69d5 cdbc
00000010: 8750 72bb 8a94 6cbd 9621 7dbd 1e77 a7bd
00000020: fe91 0d3d 275a e83c 4ec9 1e3c d168 9d3d
00000030: 44cc a6bd 9dda cc3c ba42 0a3d 17e4 0f3d
00000040: 9baf 4ebd 2544 85bd 0867 12bc f5fa b13b
00000050: 62dc cc3b ddc5 af3d 7735 0b3d 5295 813d
00000060: 3e21 edbc bab9 0abd 759d 2f3d 904f 213b
00000070: 700c 13bd 1a2e a93b 8deb 42bd e293 ef3c
00000080: 4c70 4e3d 8853 4e3c 9212 c7bb 5b89 c13a
00000090: b514 19bd e6b7 aabb 89dd 28bd f9e6 1e3d
000000a0: 9c18 733d ea38 87b7 4921 6b3d a158 16bd
000000b0: 9919 773d ff25 b8bc 1c0e f03b 3880 babc
000000c0: 59ec 13bd 8930 0abc d2c5 ffbc e455 d1bb
000000d0: 0f2f 313a 624f 5e3d 4b3b 903d 2124 48bd
000000e0: ab49 2cbd c6bb ce3b 926f 93ba fa0a 043d
000000f0: 9f16 c0bc 9959 013d ce1d 85bd 485a b93d
00000100: 1877 6d3d 179c 68bd 9e3d 6ebd 5f03 2fbd
00000110: 1a59 76bc afdb 51bd 2c9f 8c3c 07a9 493c
00000120: 39f1 3abd 23a5 1f3d 7ad2 773d 942e 86bc
00000130: 57c9 9fbc b805 5fbd dde2 093c 8905 ba3c
00000140: 667f 54bd d999 d6bc 5b34 f4bd a9cf 323d
00000150: 368d 153c 2072 98bc abb5 75bc 68ee fabc
00000160: 71cc 523d 2684 333b e858 62bd 1b26 4fbd
00000170: e471 8e3b ddf1 94bd 5969 31bd 1864 26bd
00000180: ea24 e3bc ec8a adbc 2227 91bd 2f7f 48bc
00000190: 040c cf3c 89c8 6abc 8830 62bc 3f47 cd3d
000001a0: 5c7e b03d 4d73 253d f047 e0bc 0554 b1bc
000001b0: 3724 4b3c 4465 a33d d9a7 5a3c ad96 913b
000001c0: 56ef aa3b 05cd 21bb fa0c b53d 9738 2c3c
000001d0: ae40 843b 1477 c9bc 72f0 56bd abab cebc
000001e0: f402 fbbd d306 4cbd 1b8c 6dbd d8a2 2dbd
000001f0: 6542 85bd 0e95 94bc d70f 5e3d 3703 d2ba
00000200: 3f66 b43d 381d 0d3c c839 933c 3dca 26b9
00000210: 3329 d13d a264 d13c d20c 5b3b e2a9 febc
00000220: a6a8 6e3c 0d3b 98bd 09d6 7d3c 4197 89bb
00000230: a98b e0bc fdf5 643c be70 64bd 8785 043d
00000240: 15ef c13d 66c2 ddbb 77cb 4fbd f8a9 88bc
00000250: 8c57 8ebd 9047 b2bd 5123 10bc 8505 1ebc
00000260: 9ef5 a2bd 49d6 32bd e380 55bc 34b1 0f3b
00000270: 49f1 923c ad32 953c 6483 fe3c 6e23 5e3d
00000280: 44a4 4e3c 69f9 673c 8a0f 0a3d a241 e33c
00000290: c067 983b 179b 983b 199f 31bd ea03 0bbd
000002a0: 16b8 88bd 9d94 373c 1c9d 013d e9a4 28bc
000002b0: 4892 2f3c 2180 e6bc e7fb 59bd 9fae cabc
000002c0: f1cc 0ebd e169 fc3b f8d6 a13d 41b8 a93c
000002d0: 7183 cebc d980 acbd 7a9e fabd 51bb 9d3c
000002e0: 91e6 803d 9efa 21bd f857 0bbd 32a3 b3bd
000002f0: 3d45 023c 3540 593d 0a66 823d 82af 103d
00000300: b422 aebd 8b55 a1ba 4cab 393d ee16 783d
00000310: c3aa 373d 8c6d dfbc 4d38 bfbc 5449 073d
00000320: 415b a03c 0f96 5bbd e0fd 4dbd d060 1e3d
00000330: 9fdc e73d a57c 11bd a850 653d b4e9 623d
00000340: 6cbd 403c e1b6 c9bc 77a3 133c 4b6e 91bd
00000350: bffb 483d e46f 1dbd f9fb 2dbd b026 83bd
00000360: 955d 9b39 114c 8e3c 07bb 9d3d 7bb4 64bc
00000370: 0c6c 4d3d a346 db3c c976 bd3d 3ae0 663d
00000380: 6314 0f3e 3a47 cd3b 43da a9bd 5175 87bd
00000390: 609d 053d 53d6 cb3d 9c5c 523d 58f8 dfbc
000003a0: a80a 363b 3934 603c 57b9 313c 71a4 133d
000003b0: d400 14bd d888 16bc 0e22 18bd 0bd6 50bd
000003c0: f891 8ebd 55a4 6fbd cf24 ce3b 759f 703a
000003d0: 1c4d bcbb bad5 2a3d 01ac 313d e7c6 73bd
000003e0: 4b0d 4f3c c1c4 8bbd 70fb 213d 972c c7bb
000003f0: 0a8a 073d f521 74bd 3e11 2fbc ec27 cfba

classifier.1.bias f4 [120]
0.011400384 -0.054139648 -0.0067578033 0.024051797 -0.010771299 -0.020320874 0.023897773 -0.04843009
-0.013625348 0.060067035 -0.048438165 -0.026118983 0.011300174 -0.0116753755 -0.00069166184 -0.0029602416
0.018879402 0.022120254 0.019116333 -0.027777493 -0.016369002 -0.030726394 0.034572266 -0.03698369
-0.026689125 -0.02192121 -0.055027038 -0.039176546 -0.003987478 0.054116175 -0.029263042 0.08267644
-0.04649284 -0.052679084 -0.030551834 0.071743265 0.0064558233 -0.035428736 0.073838264 -0.039651394
-0.070877194 0.03183288 -0.016924324 -0.021986946 0.05471488 0.05518653 -0.09899747 -0.05732327
-0.0026771708 0.033956733 -0.0071539725 -0.057933975 0.026128989 0.003135871 -0.03229082 0.06576655
-0.09062467 0.060659833 -0.018544381 0.056678683 0.041463953 0.02983443 0.10534551 0.0066127134
-0.0071385643 0.11459871 -0.076791815 0.014677077 0.024075564 0.027609987 0.063089386 0.02205856
0.03060108 -0.06945126 0.02701008 -0.031319402 0.045546714 -0.02348757 -0.01688303 -0.0280622
0.039145634 -0.054533977 0.018259099 0.04378288 -0.0018460562 -0.064670615 0.01777346 -0.0062059676
0.007165843 0.023377653 0.02886023 0.03180543 0.022149313 0.024680037 -0.052538924 0.0039859246
0.08549287 0.06402271 -0.010163557 0.10074792 0.046811026 -0.046090983 0.070585385 -0.048978705
-0.0205652 0.044102263 0.017018268 0.056620024 0.01944519 -0.07554172 -0.013894754 -0.0027384232
0.0012216597 0.028707886 -0.0018462463 0.05738107 -0.020906031 0.031757917 0.063432105 0.060037818
00000000: adc8 3a3c 89c1 5dbd 9070 ddbb 4608 c53c
00000010: 1a7a 30bc f677 a6bc 43c5 c33c a15e 46bd
00000020: da3c 5fbc da08 763d 1967 46bd 7af7 d5bc
00000030: 5d24 393c 134a 3fbc a450 35ba 9d00 42bb
00000040: faa8 9a3c 8935 b53c db99 9c3c a08d e3bc
00000050: 4918 86bc ebb5 fbbc a69b 0d3d 367c 17bd
00000060: 27a3 dabc 1c94 b3bc 0864 61bd 9677 20bd
00000070: 64a9 82bb eca8 5d3d 0cb9 efbc 4452 a93d
00000080: 476f 3ebd 06c6 57bd d747 fabc 22ee 923d
00000090: 5f8b d33b b91d 11bd 8438 973d 8069 22bd
000000a0: 1028 91bd 3263 023d e1a4 8abc f81d b4bc
000000b0: b61c 603d 450b 623d 30bf cabd cecb 6abd
000000c0: 7973 2fbb 3716 0b3d df6b eabb 2d4c 6dbd
000000d0: 760c d63c 2f83 4d3b 6143 04bd 9db0 863d
000000e0: 6d99 b9bd 7276 783d 63ea 97bc e827 683d
000000f0: 1bd6 293d 5667 f43c 63bf d73d 76af d83b
00000100: 9eea e9bb bab2 ea3d 0745 9dbd 1f78 703c
00000110: 1e3a c53c 572e e23c 0235 813d 27b4 b43c
00000120: 1eaf fa3c 763c 8ebd 3e44 dd3c c648 00bd
00000130: 318f 3a3d 0169 c0bc 484e 8abc b3e2 e5bc
00000140: 2c57 203d 055f 5fbd 1b94 953c ad55 333d
00000150: 5ef7 f1ba 0772 84bd a699 913c 6e5b cbbb
00000160: 73cf ea3b 7e82 bf3c 4a6c ec3c 6946 023d
00000170: 7a72 b53c ca2d ca3c 0e33 57bd 5c9c 823b
00000180: e316 af3d 571e 833d 0c85 26bc ed54 ce3d
00000190: ebbc 3f3d e6c9 3cbd 128f 903d e59d 48bd
000001a0: 5a78 a8bc 93a4 343d e569 8b3c 66ea 673d
000001b0: 854b 9f3c 9eb5 9abd d3a6 63bc 1e77 33bb
000001c0: 1920 a03a cd2c eb3c bffd f1ba 6a08 6b3d
000001d0: 2043 abbc 9714 023d b1e8 813d 37ea 753d

classifier.3.weight f4 [84, 120]
0.11793599 0.022079702 -0.09690901 -0.1647017 0.07402769 -0.080074035 0.02804927 0.08708469
0.10242276 -0.09408468 0.095095016 0.04265321 -0.22012015 0.09008702 0.23474815 -0.018980283
0.106093556 -0.045727663 0.022884509 -0.06964775 -0.020089006 0.15564613 0.010270394 -0.013938608
0.09839297 0.0382184 -0.097752 -0.041731805 -0.12651236 -0.0022192188 -0.13857661 -0.11986591
0.13725895 -0.055135846 0.053730667 -0.063879475 0.043477096 0.088541865 0.013752996 -0.03239279
-0.03361739 -0.13653466 0.15320972 0.02748253 -0.11962209 0.021648327 -0.00064909697 0.00537671
0.15199253 -0.1023523 0.10954051 0.10869397 0.17179191 0.08466877 0.045723505 -0.0844628
-0.071953654 0.12384572 -0.042197354 0.018374532 -0.1405082 -0.023534292 -0.072778195 0.13799015
-0.06633134 0.09329068 0.12215985 0.07312746 -0.0392285 0.07092196 -0.076110065 0.11821139
0.00020511891 -0.103080325 -0.14040147 -0.14368686 -0.039723914 -0.0468064 -0.027759364 0.008578331
0.14373186 0.025990516 0.10422706 -0.037138898 -0.020694362 0.06860924 0.031270035 0.12488451
-0.10222518 -0.16820134 -0.043295927 0.084829696 0.18856145 0.12162412 -0.00040910425 -0.1286152
0.086567976 0.02118801 -0.075520106 -0.1618335 -0.012754708 0.12032286 0.110463984 0.046346042
0.061250657 -0.014075622 0.012647335 -0.023554606 0.02621464 -0.08532431 -0.09022652 0.006136955
0.16798103 0.08664103 -0.1183451 -0.11629606 0.10974847 -0.093711525 -0.015100449 -0.13153225
-0.057493374 0.1118911 0.08375005 0.071044184 0.14418611 0.115274 -0.08538852 -0.035393167
-0.012436062 0.11778051 -0.013004616 0.05677044 0.09392302 0.10175707 -0.12297267 -0.120101295
-0.14276603 0.12566954 0.0788211 0.05383539 0.15125433 -0.05869692 0.12239789 -0.016756257
-0.10732204 -0.1104142 -0.0725013 -0.046243995 0.12438561 -0.14533198 -0.058424808 0.1620724
-0.084967956 0.0477331 -0.14993718 -0.024706064 -0.057967514 -0.008560674 -0.20978016 0.095796525
0.17468953 -0.04893507 0.0779539 -0.06926671 0.15841122 -0.026163014 0.034991127 0.023219075
-0.22739345 0.08272168 0.07796745 0.089834936 0.03495175 0.08385495 -0.07543285 0.050715107
0.032084532 -0.17014007 0.17436112 0.0125877075 0.04188492 0.04736688 -0.108544834 0.036376327
-0.059775054 -0.0067304787 0.09823494 -0.023653714 -0.040093556 -0.16450255 -0.06575381 -0.0800958
-0.070195004 -0.055107262 0.051129222 -0.028590135 -0.018919516 -0.09350855 0.07360758 -0.06497002
-0.07632732 0.06287485 -0.102832794 -0.1812166 -0.1709571 0.028169665 -0.10544517 -0.08802314
0.021634106 0.031231392 0.20669273 -0.10317566 -0.020879272 0.05446544 0.05526408 0.08598667
-0.14548522 0.037462544 0.024614021 0.06033889 -0.10187098 -0.18873496 -0.17729656 -0.14672765
-0.07549966 0.047137607 0.13206208 0.046114102 -0.029548248 -0.03555995 -0.024493791 -0.026741076
-0.1562002 -0.1257616 -0.036974728 -0.00022446435 -0.017166782 -0.013463948 -0.04369592 0.19878413
-0.074396566 0.06923187 0.07588611 0.13788539 0.10595428 -0.017042862 0.011189877 -0.059485096
-0.06922032 -0.076407425 0.020861488 -0.023784671 0.13526046 0.016248971 -0.026189797 0.027604526
00000000: 6d88 f13d 7ee0 b43c 3b78 c6bd 90a7 28be
00000010: d49b 973d dbfd a3bd 95c7 e53c 7559 b23d
00000020: 06c3 d13d 78af c0bd 2dc1 c23d 22b5 2e3d
00000030: 2d67 61be 8b7f b83d d261 703e 8a7c 9bbc
00000040: 9447 d93d ee4c 3bbd 4b78 bb3c 7ba3 8ebd
00000050: b391 a4bc b361 1f3e 2845 283c c25e 64bc
00000060: 4182 c93d e68a 1c3d 3332 c8bd f8ee 2abd
00000070: 758c 01be 5070 11bb 07e7 0dbe 427c f5bd
00000080: 9c8d 0c3e 20d6 61bd b014 5c3d 3ed3 82bd
00000090: 0a15 323d 7055 b53d 3f54 613c 4dae 04bd
000000a0: 63b2 09bd becf 0bbe 02e3 1c3e 0b23 e13c
000000b0: 6dfc f4bd d557 b13c 2928 2aba 1d2f b03b
000000c0: eea3 1b3e 159e d1bd c656 e03d f29a de3d
000000d0: 38ea 2f3e d266 ad3d 9248 3b3d d5fa acbd
000000e0: 705c 93bd d3a2 fd3d 22d7 2cbd 3086 963c
000000f0: 62e1 0fbe fdca c0bc bc0c 95bd 4a4d 0d3e
00000100: bad8 87bd 2f0f bf3d f22e fa3d dac3 953d
00000110: 10ae 20bd 883f 913d 98df 9bbd d018 f23d
00000120: 3015 5739 c71b d3bd 67c5 0fbe a622 13be
00000130: 8bb5 22bd 11b8 3fbd 9b67 e3bc 218c 0c3c
00000140: 722e 133e 10ea d43c ff74 d53d f51e 18bd
00000150: 3987 a9bc 0083 8c3d 0215 003d 73c3 ff3d
00000160: 6f5b d1bd f93c 2cbe 1257 31bd 31bb ad3d
00000170: 4116 413e 1116 f93d 0b7d d6b9 b4b3 03be
00000180: 8d4a b13d 7a92 ad3c 49aa 9abd aeb7 25be
00000190: 1ff9 50bc d56b f63d f13a e23d 59d5 3d3d
000001a0: f8e1 7a3d 709d 66bc c536 4f3c 97f5 c0bc
000001b0: 16c0 d63c 83be aebd afc8 b8bd 8318 c93b
000001c0: 3803 2c3e da70 b13d ea5e f2bd a12c eebd
000001d0: cec3 e03d d4eb bfbd e067 77bc 64b0 06be
000001e0: 2c7e 6bbd 2927 e53d 2585 ab3d 9d7f 913d
000001f0: 86a5 133e c614 ec3d 2de0 aebd 6df8 10bd
00000200: a0c0 4bbc e836 f13d 5011 55bc 1f88 683d
00000210: b65a c03d 0366 d03d 18d9 fbbd abf7 f5bd
00000220: 4231 12be 84af 003e f56c a13d 7f82 5c3d
00000230: 6ae2 1a3e 2e6c 70bd bfab fa3d 6b44 89bc
00000240: a8cb dbbd d720 e2bd 907b 94bd 586a 3dbd
00000250: e2bd fe3d e8d1 14be da4e 6fbd 4ff6 253e
00000260: ae03 aebd c883 433d 2289 19be 5f64 cabc
00000270: 586f 6dbd 1242 0cbc 9cd0 56be f830 c43d
00000280: d0e1 323e 2470 48bd 4ba6 9f3d b4db 8dbd
00000290: 8d36 223e d153 d6bc db52 0f3d ee35 be3c
000002a0: d4d9 68be fc69 a93d 66ad 9f3d 61fb b73d
000002b0: 9129 0f3d 25bc ab3d 8a7c 9abd a5ba 4f3d
000002c0: 126b 033d 3339 2ebe b98b 323e ac3c 4e3c
000002d0: 868f 2b3d c603 423d c14c debd 58ff 143d
000002e0: b0d6 74bd 598b dcbb 662f c93d 6fc5 c1bc
000002f0: 2439 24bd 5b73 28be efa9 86bd 4409 a4bd
00000300: 66c2 8fbd 27b8 61bd e06c 513d dc35 eabc
00000310: 1afd 9abc 6981 bfbd 92bf 963d 000f 85bd
00000320: 7f51 9cbd 88c4 803d 009a d2bd d890 39be
00000330: 610f 2fbe 12c4 e63c a3f3 d7bd 7a45 b4bd
00000340: 023a b13c fad8 ff3c 42a7 533e c34d d3bd
00000350: 020b abbc 2717 5f3d 975c 623d c719 b03d
00000360: 14fa 14be 5372 193d 58a3 c93c e925 773d
00000370: bba1 d0bd bd43 41be 3b8d 35be c63f 16be
00000380: 919f 9abd 5d13 413d 483b 073e 24e2 3c3d
00000390: 2b0f f2bc 4fa7 11bd 34a7 c8bc 1a10 dbbc
000003a0: f2f2 1fbe a6c7 00be d072 17bd 315e 6bb9
000003b0: 5aa1 8cbc e497 5cbc 7efa 32bd 118e 4b3e
000003c0: 3a5d 98bd 70c9 8d3d 2d6a 9b3d d431 0d3e
000003d0: 8ffe d83d 799d 8bbc bf55 373c a5a6 73bd
000003e0: 62c3 8dbd 7f7b 9cbd b6e5 aa3c 12d8 c2bc
000003f0: b881 0a3e 901c 853c fc8b d6bc e322 e23c

classifier.3.bias f4 [84]
0.0629228 -0.07466346 -0.057855118 -0.05165333 0.040921375 -0.04360537 0.055309687 0.09064662
0.0028737937 -0.06714262 -0.058944944 -0.04375231 0.0878766 -0.032887097 0.050597154 0.030766126
0.048517764 0.063446 -0.055757 -0.065774225 0.037346482 0.06853193 -0.089162186 -0.011978938
0.057293177 -0.01354821 0.041129224 -0.10427857 -0.098094255 -0.06411713 -0.102046415 -0.010455916
0.09486628 -0.0024076938 0.009832158 -0.04162908 0.03324401 0.11580855 0.1397383 -0.00031643466
0.024683388 -0.021442225 0.02791968 -0.032958023 -0.03565135 0.0061679147 0.057939347 0.035439275
-0.044603962 -0.041216753 -0.035230186 -0.077589236 0.005148276 -0.04094218 -0.10837414 0.00902657
-0.13963425 0.13606808 -0.024403332 -0.1252539 0.07426665 -0.0017770645 -0.09500375 0.03376364
-0.05361609 0.15423873 0.077752605 0.05466323 0.081392914 -0.021843614 -0.16521396 -0.08104587
-0.012677706 -0.003928871 0.042550236 -0.004204302 0.023589587 -0.007797026 -0.055002823 -0.05414609
0.037957884 -0.022717537 -0.03209144 -0.07065207
00000000: abdd 803d 28e9 98bd 7df9 6cbd 7192 53bd
00000010: 2c9d 273d 8b9b 32bd 698c 623d efa4 b93d
00000020: 4256 3c3b 1282 89bd 4170 71bd 9f35 33bd
00000030: a6f8 b33d 9fb4 06bd f63e 4f3d 3e09 fc3c
00000040: 90ba 463d faef 813d 7461 64bd a3b4 86bd
00000050: a0f8 183d 785a 8c3d aa9a b6bd 4f43 44bc
00000060: 40ac 6a3d 50f9 5dbc 1e77 283d 0190 d5bd
00000070: a4e5 c8bd d84f 83bd b6fd d0bd 4a4f 2bbc
00000080: 4149 c23d 66ca 1dbb 0f17 213c 4183 2abd
00000090: df2a 083d 082d ed3d 8f17 0f3e 24e7 a5b9
000000a0: d134 ca3c 9ba7 afbc d0b7 e43c fefe 06bd
000000b0: 2607 12bd 381c ca3b cf51 6d3d c628 113d
000000c0: a5b2 36bd e6d2 28bd 874d 10bd 1be7 9ebd
000000d0: dfb2 a83b fdb2 27bd 43f3 ddbd 2ee4 133c
000000e0: 48fc 0ebe 6e55 0b3e 7fe9 c7bc 8f42 00be
000000f0: 1d19 983d 64ec e8ba 5391 c2bd be4b 0a3d
00000100: 8c9c 5bbd c2f0 1d3e c23c 9f3d 8de6 5f3d
00000110: 54b1 a63d 61f1 b2bc d92d 29be 61fb a5bd
00000120: 27b6 4fbc c2bd 80bb 2849 2e3d 3ec4 89bb
00000130: f33e c13c 327e ffbb a44a 61bd 4ac8 5dbd
00000140: ba79 1b3d 211a babc 5072 03bd 08b2 90bd

classifier.5.weight f4 [10, 84]
0.25524116 0.3051168 0.24939543 0.055133607 0.4238744 -0.28395107 0.20124203 0.15189926
0.36041385 -0.17152894 -0.23183328 -0.19508144 -0.15851767 -0.26073503 0.13212785 -0.04711995
-0.0664947 -0.33206058 -0.027080711 -0.10044265 -0.26425356 0.113598734 0.103682816 0.21873425
0.10092482 -0.09820099 0.19394673 0.31318468 -0.28282234 0.30642024 -0.14708184 -0.009120123
-0.34580198 0.12230535 0.18778603 -0.27122122 0.28840494 0.23281838 -0.16625953 0.0965403
-0.16939819 -0.05257516 -0.06474395 -0.18486169 -0.16154435 0.24000266 -0.29853106 0.17755385
-0.12098075 -0.1292737 -0.08482094 -0.096653044 0.06208256 0.1691835 0.053710163 -0.29402804
-0.11608714 -0.097483814 -0.2993356 0.35562336 0.17821239 -0.15784723 0.015682075 0.16672786
-0.19461703 0.28191158 -0.0667502 0.059357774 -0.3612122 0.12554677 0.05409591 -0.15812133
-0.14503586 -0.21812871 0.028424706 -0.11768311 0.17691578 -0.16863194 0.43465132 0.23670237
0.17436887 -0.32863373 -0.21132864 0.05831293 -0.1798662 -0.17103381 -0.0072410926 0.2984544
-0.26594743 0.16685297 -0.1689836 -0.26360315 0.25422746 -0.0014962503 0.16881672 -0.40321034
0.20256709 -0.3509944 -0.22717087 0.23134263 0.33644575 -0.2171789 0.29760748 0.21147382
-0.21413492 -0.23234777 -0.38975558 -0.12069447 -0.38849849 0.19237894 -0.08312385 -0.15447544
0.051604956 0.22649115 0.17699529 -0.2915349 0.11322935 -0.334208 -0.1428797 0.2552945
-0.19425155 -0.10200895 0.42566687 -0.19137873 0.0029802686 -0.08668982 -0.069560714 0.071868196
0.04067858 0.30858153 0.14275193 0.019595725 0.2540875 0.055742644 0.39395696 -0.28976685
-0.11068074 -0.12691197 -0.22605316 0.13717078 -0.114739515 0.22674142 -0.31396666 -0.19109514
0.25954577 0.07448766 0.090094 0.15306665 0.27738032 0.23820303 0.29503202 0.17207634
0.041069128 -0.33710274 -0.2999876 0.15248291 0.21052624 0.090213574 0.12029178 0.16560413
0.40227583 0.14432211 -0.13054954 -0.12471215 0.09452037 -0.12934001 0.0018287669 0.18718477
0.33724913 -0.27676922 -0.06592338 0.087144256 -0.08833114 -0.33967006 0.20546104 -0.1404544
0.20858118 -0.2726248 -0.13209412 -0.21966481 0.041771997 -0.2521911 -0.13033752 -0.093211465
-0.16211055 0.36106235 -0.22998185 -0.31037354 -0.12610134 0.18727694 0.3341643 -0.16683629
0.107704245 0.23208088 -0.097547986 -0.262206 -0.21812448 0.2139507 -0.19209068 -0.44238728
0.16875422 0.25983882 -0.39257857 -0.2519269 -0.23386659 -0.13318741 -0.13120997 0.28889588
-0.06376042 0.21553342 -0.07371798 -0.2653236 0.09754027 0.22562364 0.29422495 -0.03512336
-0.090003364 0.35505137 -0.20196547 -0.19604446 0.20095073 -0.15668789 -0.25313655 -0.2982367
-0.15334609 0.30116335 -0.3976521 -0.014833574 0.33602643 0.020686967 -0.17962146 -0.31665546
-0.08946565 0.27115285 0.05799373 0.18269818 0.28123406 -0.27966508 0.17998676 0.25340927
-0.16068701 0.037777033 -0.020018058 0.048818905 -0.31218508 0.054026797 -0.13479917 0.24244681
-0.34229228 -0.030473037 -0.31171817 -0.17037006 0.0124924 -0.20099324 -0.34268054 -0.2624305
00000000: f8ae 823e 4538 9c3e 8461 7f3e c7d3 613d
00000010: 1106 d93e 0962 91be 6412 4e3e 7b8b 1b3e
00000020: 2a88 b83e 48a5 2fbe b465 6dbe 6ec3 47be
00000030: 7552 22be 107f 85be 864c 073e d900 41bd
00000040: 602e 88bd d803 aabe 5ed8 ddbc e0b4 cdbd
00000050: 3e4c 87be 74a6 e83d a857 d43d dffb 5f3e
00000060: acb1 ce3d 9a1d c9bd f999 463e be59 a03e
00000070: 17ce 90be 1de3 9c3e 9f9c 16be 926c 15bc
00000080: f50c b1be 3a7b fa3d fb4a 403e 82dd 8abe
00000090: d0a9 933e f167 6e3e f03f 2abe ecb6 c53d
000000a0: b876 2dbe 0d59 57bd 7a98 84bd 624c 3dbe
000000b0: e26b 25be 42c3 753e 10d9 98be add0 353e
000000c0: c1c4 f7bd 5360 04be 9ab6 adbd 08f2 c5bd
000000d0: 484a 7e3d 703e 2d3e 30ff 5b3d d88a 96be
000000e0: 18bf edbd 98a5 c7bd 8442 99be 4414 b63e
000000f0: 4f7d 363e b4a2 21be b277 803c b5ba 2a3e
00000100: b049 47be b756 903e 54b4 88bd 2321 733d
00000110: cef0 b8be 558f 003e ac93 5d3d 8fea 21be
00000120: 4884 14be 225d 5fbe eeda e83c d803 f1bd
00000130: 6929 353e daad 2cbe 9e8a de3e 1b62 723e
00000140: c18d 323e ae42 a8be 8966 58be 8ad9 6e3d
00000150: d82e 38be 7d23 2fbe b046 edbb 04cf 983e
00000160: 432a 88be 81db 2a3e 090a 2dbe fef6 86be
00000170: 1a2a 823e d41d c4ba 4ade 2c3e 9671 cebe
00000180: bf6d 4f3e 8ab5 b3be 7b9f 68be 15e5 6c3e
00000190: 9e42 ac3e 2564 5ebe 0260 983e 988c 583e
000001a0: 2f46 5bbe 93ec 6dbe 0b8e c7be aa2e f7bd
000001b0: 46e9 c6be fcfe 443e d63c aabd cf2e 1ebe
000001c0: b85f 533d 4ced 673e 413e 353e 1044 95be
000001d0: cae4 e73d 501d abbe 0e4f 12be f6b5 823e
000001e0: e1e9 46be 12ea d0bd 02f1 d93e c9f8 43be
000001f0: 9c50 433b 6f8a b1bd d975 8ebd a22f 933d
00000200: 959e 263d 66fe 9d3e 902d 123e 3787 a03c
00000210: c217 823e 6652 643d bab4 c93e 525c 94be
00000220: 95ac e2bd 36f5 01be 7b7a 67be 7f76 0c3e
00000230: 8dfc eabd e72e 683e 3dc0 a0be 72ae 43be
00000240: 2fe3 843e fc8c 983d 3483 b83d 81bd 1c3e
00000250: cb04 8e3e 7feb 733e 700e 973e c834 303e
00000260: 1a38 283d bb98 acbe fa97 99be 7b24 1c3e
00000270: 3194 573e e5c1 b83d 895b f63d 2194 293e
00000280: 19f7 cd3e 2dc9 133e c7ae 05be 1569 ffbd
00000290: e593 c13d b571 04be 3cb3 ef3a 5dad 3f3e
000002a0: ebab ac3e b2b4 8dbe d602 87bd b078 b23d
000002b0: f5e6 b4bd 3ce9 adbe 6164 523e 47d3 0fbe
000002c0: 4e96 553e 7a95 8bbe ae43 07be d0ef 60be
000002d0: 1d19 2b3d 311f 81be 3377 05be a7e5 bebd
000002e0: 4f00 26be 2add b83e 5d80 6bbe 48e9 9ebe
000002f0: b620 01be 87c5 3f3e 9517 ab3e 22d7 2abe
00000300: 0b94 dc3d 9ca6 6d3e 3dc7 c7bd dd3f 86be
00000310: 065c 5fbe e415 5b3e 6bb3 44be 9680 e2be
00000320: e8cd 2c3e 9809 853e 0f00 c9be 90fc 80be
00000330: b97a 6fbe 4862 08be e85b 06be 29ea 933e
00000340: d394 82bd cbb4 5c3e 74f9 96bd 7fd8 87be
00000350: 31c3 c73d e209 673e a7a4 963e 83dd 0fbd
00000360: af53 b8bd 4bc9 b53e 09d0 4ebe e1bf 48be
00000370: 07c6 4d3e ca72 20be 1d9b 81be 7bb2 98be
00000380: c206 1dbe 1532 9a3e 0e99 cbbe 8508 73bc
00000390: a80b ac3e b777 a93c b0ee 37be aa20 a2be
000003a0: c439 b7bd 8cd4 8a3e d58a 6d3d 3b15 3b3e
000003b0: e9fd 8f3e 4330 8fbe 734e 383e dcbe 813e
000003c0: 238b 24be 17bc 1a3d e9fc a3bc 55f6 473d
000003d0: b9d6 9fbe 344b 5d3d cb08 0abe fa43 783e
000003e0: ef40 afbe 97a2 f9bc 8699 9fbe 7d75 2ebe
000003f0: ecac 4c3c 2cd1 4dbe d373 afbe 4a5d 86be

classifier.5.bias f4 [10]
-0.034917105 0.052713055 0.14569607 -0.0010611373 0.01343013 0.118734084 -0.084662646 -0.014031904
-0.18248811 0.093493804
00000000: 3d05 0fbd a5e9 573d 5a31 153e dc15 8bba
00000010: 0c0a 5c3c db2a f33d 9c63 adbd 12e6 65bc
00000020: 2ade 3abe ae79 bf3d
