Explainability/models/ViT_vanilla_mnist.pth (torch, 705414 bytes, 56 tensors)

pos_embedding f4 [1, 50, 64]
0.1456264 -0.49880672 -0.017561361 -0.647383 0.17228512 -1.0955964 -0.7004329 -1.0593892
0.64050174 -0.3101421 0.431802 0.445047 0.5341624 0.104256295 -0.7374018 -0.027094066
-0.47839248 1.01239 -0.20869933 -1.403971 -0.5825921 -0.4510742 -0.41078714 -0.59716547
0.9932695 0.18093167 0.07643995 -0.35056055 1.9577873 0.21575472 -0.057821907 0.30903432
0.0073839515 0.5051455 0.47893783 0.5817238 0.53574336 -0.92596245 0.28055227 -0.1441359
-0.050173596 -0.6539546 -0.34180808 -0.45367053 1.0417042 0.81598574 -1.378944 -1.1142635
0.5470861 0.65846807 0.13957459 0.35744095 0.38303423 -0.63499427 -0.19121505 -0.2550065
0.8936415 -0.5750532 0.9719082 0.5918436 0.62385726 0.8588004 -0.24028659 -0.4045198
-0.54740465 -0.7239682 0.23679967 0.45301175 0.9057272 0.51170087 -1.10761 1.110333
-1.1874347 0.6317663 -0.4533683 -0.5683725 0.07145303 -0.3117399 -1.18478 0.6744268
0.5118142 0.24495219 -0.66958815 0.08395438 0.45411038 -0.83920455 -1.1470164 -0.6520247
1.0019172 -0.654198 -0.0026855739 0.35186404 1.0669913 -1.4396785 -0.3071892 -0.42402452
-1.7145324 0.41691402 -0.10970673 0.4433487 0.060924087 -1.7389027 0.015219132 1.7282321
0.20704558 -0.91624945 0.37329662 -0.19350629 0.18161511 -1.8093175 0.39472175 -1.6695571
0.48448342 -0.8767999 0.7091737 1.4275024 -0.34464392 0.21145049 0.2567032 -1.9610186
2.4118907 -0.47583905 1.726125 0.90945095 -0.18512903 0.28261632 3.5385108 -0.057335146
2.0361304 -0.70070744 -0.20106955 0.33678842 0.32217327 -0.9207967 1.6206274 0.68994516
0.4720117 -0.9499957 -1.1063731 0.5769117 -0.46227527 -2.8337042 -1.0569186 -0.7075836
-1.3715103 0.8897133 0.5269099 0.7916918 -1.2875541 -2.8926334 -0.33486792 1.0731837
-2.3013878 0.10321234 -1.1616945 -0.7038353 1.4474455 -0.7831686 -0.2309845 -0.28553978
-0.46727744 0.6446867 1.1032102 2.9781528 -1.3331772 -0.5738633 0.07440467 0.78335637
1.0480344 0.00046767417 -0.17199 -0.40684322 0.55579084 1.652492 -0.4420975 -1.3047229
0.68546855 0.5631774 -0.13340078 -1.2107134 0.9162875 0.7583333 -2.022644 -0.60144603
0.52251583 -0.9779167 0.6746109 1.201809 -1.198027 0.008815452 1.0396554 1.7559764
-0.36564556 -1.2817333 0.07640395 -0.46979082 -1.2023287 -1.2284893 0.21004267 -0.55571264
-0.15881197 -0.5831125 -0.060708128 0.9243108 0.044589743 -0.5682916 -0.017898783 -1.3520623
-0.6629878 0.7849799 0.13687274 -1.3802451 1.2552966 0.34647438 -1.4155812 -0.7982148
0.22609307 1.4603258 -0.024065474 -0.25472897 0.107037604 2.3979688 -1.141766 1.9424442
0.8327912 1.1946496 1.0422078 -0.7975669 -1.651146 0.63606083 1.7359859 -0.4064505
0.30877915 0.18276355 -0.47112018 1.0894897 0.31082782 0.46440384 0.30940142 -1.8282936
-0.3408579 0.55235195 -1.4166785 0.75263506 1.1708223 0.76289916 0.54675 0.19475389
-1.0641361 -1.6075004 -0.87665033 -0.99995774 -0.3669083 0.79864275 1.5587085 0.51282287
00000000: 161f 153e 9863 ffbe d8dc 8fbc e4ba 25bf
00000010: 836b 303e 813c 8cbf 924f 33bf 119a 87bf
00000020: ecf7 233f f2ca 9ebe 2715 dd3e 33dd e33e
00000030: debe 083f 5384 d53d 5dc6 3cbf 60f4 ddbc
00000040: dcef f4be ff95 813f 47b5 55be 52b5 b3bf
00000050: c224 15bf 33f3 e6be b152 d2be d6df 18bf
00000060: e946 7e3f 2746 393e 8c8c 9c3d ac7c b3be
00000070: c698 fa3f ceee 5c3e aad6 6cbd bf39 9e3e
00000080: 13f5 f13b 3751 013f 5737 f53e daeb 143f
00000090: 7a26 093f e00b 6dbf 8ca4 8f3e 5d98 13be
000000a0: d482 4dbd 9269 27bf 7801 afbe 8147 e8be
000000b0: 9056 853f 71e4 503f 3d81 b0bf 30a0 8ebf
000000c0: d60d 0c3f 5d91 283f a4ec 0e3e 8002 b73e
000000d0: 101d c43e fc8e 22bf e1cd 43be 3690 82be
000000e0: b0c5 643f b036 13bf face 783f 1083 173f
000000f0: 1cb5 1f3f 58da 5b3f b00d 76be 381d cfbe
00000100: b622 0cbf fb55 39bf 9d7b 723e 28f1 e73e
00000110: bddd 673f d4fe 023f 2ac6 8dbf 641f 8e3f
00000120: dcfd 97bf 70bb 213f e41f e8be dc80 11bf
00000130: f755 923d 5f9c 9fbe dfa6 97bf 3ca7 2c3f
00000140: 4106 033f bfd4 7a3e 216a 2bbf 46f0 ab3d
00000150: 2881 e83e 1cd6 56bf 6fd1 92bf 17eb 26bf
00000160: d33e 803f 8579 27bf 7400 30bb 8627 b43e
00000170: 2c93 883f 6347 b8bf e747 9dbe be19 d9be
00000180: cc75 dbbf c175 d53e ecad e0bd 9afe e23e
00000190: 898b 793d 5d94 debf ab59 793c b636 dd3f
000001a0: c203 543e 538f 6abf bc20 bf3e 8326 46be
000001b0: 50f9 393e b797 e7bf f818 ca3e 0cb4 d5bf
000001c0: 360e f83e f575 60bf 688c 353f 66b8 b63f
000001d0: 2b75 b0be 7a86 583e 9a6e 833e a802 fbbf
000001e0: 6b5c 1a40 2da1 f3be aaf1 dc3f c7d1 683f
000001f0: 7792 3dbe 16b3 903e f676 6240 42d8 6abd
00000200: f64f 0240 9061 33bf 2de5 4dbe 886f ac3e
00000210: e5f3 a43e 55b9 6bbf b870 cf3f 3fa0 303f
00000220: 84ab f13e eb32 73bf a29d 8dbf 7cb0 133f
00000230: 58af ecbe 695b 35c0 1c49 87bf 3324 35bf
00000240: a68d afbf 40c4 633f 91e3 063f 50ac 4a3f
00000250: 93ce a4bf e820 39c0 cf73 abbe 155e 893f
00000260: f049 13c0 fe60 d33d 68b2 94bf 8d2e 34bf
00000270: e545 b93f bd7d 48bf 3387 6cbe 4532 92be
00000280: fd3e efbe 300a 253f fe35 8d3f 0e9a 3e40
00000290: 8da5 aabf b5e8 12bf 7a61 983d 0b8a 483f
000002a0: fe25 863f 2a32 f539 261e 30be c14d d0be
000002b0: 4f48 0e3f dc84 d33f 9b5a e2be 2901 a7bf
000002c0: de7a 2f3f 652c 103f 379a 08be a8f8 9abf
000002d0: d191 6a3f 2222 423f 0073 01c0 5ef8 19bf
000002e0: 99c3 053f c058 7abf 4db3 2c3f e1d4 993f
000002f0: f358 99bf b06e 103c 6e13 853f d6c3 e03f
00000300: e535 bbbe d60f a4bf ad79 9c3d 6c88 f0be
00000310: e8e5 99bf 233f 9dbf 6d15 573e 2f43 0ebf
00000320: 9b9f 22be dc46 15bf 16a9 78bd a29f 6c3f
00000330: bca3 363d 8f7b 11bf 78a0 92bc 6110 adbf
00000340: 92b9 29bf 71f4 483f 5e28 0c3e dfab b0bf
00000350: 8fad a03f 1765 b13e c431 b5bf ce57 4cbf
00000360: f184 673e f5eb ba3f f524 c5bc d66b 82be
00000370: 8836 db3d 5278 1940 6325 92bf 03a2 f83f
00000380: ce31 553f 47ea 983f 1167 853f 582d 4cbf
00000390: c158 d3bf e2d4 223f c934 de3f 481a d0be
000003a0: 4d18 9e3e 5e26 3b3e aa36 f1be 6674 8b3f
000003b0: d324 9f3e 57c6 ed3e dd69 9e3e 8605 eabf
000003c0: ed84 aebe f066 0d3f b955 b5bf b1ac 403f
000003d0: 81dd 953f 5c4d 433f cff7 0b3f 906d 473e
000003e0: 9d35 88bf 93c2 cdbf 286c 60bf 3bfd 7fbf
000003f0: 68db bbbe da73 4c3f c383 c73f 5c48 033f

cls_token f4 [1, 1, 64]
-0.9087118 -0.61759615 -0.5776702 1.5979475 0.5541544 0.1797611 0.14715977 -0.23841807
-0.3077592 0.0025533305 0.2660419 -0.3297907 0.29596218 1.2828817 0.67956674 -0.18268085
-0.4999572 -0.035203785 -0.70349646 -0.40958205 1.3307818 0.9705209 0.90746367 0.41533443
-0.78846467 0.90676314 -0.10014513 -0.12499724 1.4853674 1.2556391 1.5493364 0.088253476
-0.07889239 -0.74996185 -0.34762344 -0.4600999 -0.6705488 -1.6393317 -1.590672 -0.5388005
1.748615 0.9880862 0.55510414 0.7092425 0.97721505 -1.4034895 1.4185178 0.29075998
0.15383422 0.1577621 0.108536765 0.24877319 -0.33410472 0.63865614 0.5273208 -0.44788715
-0.80877125 0.64378047 0.7567623 0.5393429 1.2887973 -0.120971814 -1.1737479 0.18346497
00000000: 56a1 68bf c81a 1ebf 32e2 13bf 8b89 cc3f
00000010: 10dd 0d3f 4b13 383e 0db1 163e de23 74be
00000020: 9d92 9dbe c755 273b a536 883e 54da a8be
00000030: 5b88 973e 7835 a43f 16f8 2d3f b010 3bbe
00000040: 64fa ffbe d831 10bd 5818 34bf bdb4 d1be
00000050: 0f57 aa3f 0f74 783f 8a4f 683f b7a6 d43e
00000060: d2d8 49bf a121 683f e418 cdbd 8efe ffbd
00000070: 8520 be3f c8b8 a03f a850 c63f 3dbe b43d
00000080: 5592 a1bd 80fd 3fbf b3fb b1be 3792 ebbe
00000090: 16a9 2bbf 9fd5 d1bf 249b cbbf d4ee 09bf
000000a0: 9ed2 df3f 38f3 7c3f 4e1b 0e3f eb90 353f
000000b0: c42a 7a3f 8ba5 b3bf fe91 b53f 7ede 943e
000000c0: b886 1d3e 638c 213e 8648 de3d 66be 7e3e
000000d0: c60f abbe f87e 233f 7ffe 063f 7751 e5be
000000e0: a20b 4fbf ccce 243f 2dbb 413f 6012 0a3f
000000f0: 4ff7 a43f 12c0 f7bd 5f3d 96bf 3ede 3b3e

to_patch_embedding.1.weight f4 [16]
0.8634407 1.0220021 1.0147922 0.99771297 1.0081425 1.0329375 0.99840766 0.9901008
1.0870074 1.0519067 1.0602115 1.0144359 1.0944784 1.1261387 1.0512422 0.92544556
00000000: 730a 5d3f f7d0 823f b6e4 813f 1e6a 7f3f
00000010: d00a 813f 4c37 843f a597 7f3f 3f77 7d3f
00000020: 0f23 8b3f e1a4 863f 03b5 873f 09d9 813f
00000030: de17 8c3f 5025 903f 1b8f 863f 00ea 6c3f

to_patch_embedding.1.bias f4 [16]
0.005857774 -0.0006143774 0.026105756 0.0076962137 0.003915017 -0.011916269 0.00885407 -0.0028641173
-0.03137261 -0.057852317 -0.019591898 -0.013464224 0.024154674 -0.0028938146 0.0094110025 0.021537164
00000000: 92f2 bf3b 2b0e 21ba bddb d53c 8530 fc3b
00000010: 8b49 803b 743c 43bc a910 113c eab3 3bbb
00000020: 9180 00bd 8df6 6cbd 307f a0bc 0c99 5cbc
00000030: 06e0 c53c 27a6 3dbb 9b30 1a3c b56e b03c

to_patch_embedding.2.weight f4 [64, 16]
0.22703902 -0.10749792 0.04574593 0.046562742 -0.120579295 -0.11459077 -0.10506897 -0.14015974
-0.11620066 0.1709311 -0.015647762 0.13143079 0.17278759 -0.0028097213 0.11820303 -0.09619757
0.22270527 0.12158562 -0.02209585 0.19656837 -0.05568319 -0.016244758 0.18639934 -0.05994142
0.10252035 0.31949386 0.018118769 -0.0035179246 -0.1872583 0.01318678 0.07342222 0.039014976
0.18362188 -0.0507538 0.12400329 0.092688136 0.21943733 -0.08037898 0.14302944 -0.22771423
0.070273384 -0.23422304 -0.192718 -0.077991515 -0.058181766 0.14660253 0.18927826 0.07825237
-0.11836784 0.08164504 0.12630446 -0.020022452 0.07049009 0.24886887 0.14860317 -0.23730738
-0.0836762 0.15570603 -0.20101559 -0.2342379 -0.09198915 -0.06936943 0.043706402 -0.2155484
-0.06139342 -0.0073874276 -0.080953576 -0.021103764 0.2149203 -0.21645764 -0.06410628 0.10917192
0.1470586 0.24592598 0.29933065 0.2954938 -0.23077796 0.19575948 -0.1278379 0.08534898
0.050603766 -0.2699675 0.16632143 -0.14632025 0.2641547 -0.0077447365 0.034566905 0.15895042
0.13873792 -0.08203331 0.033175927 0.06821419 0.0056505417 -0.03333035 -0.05915181 -0.21847512
0.16296764 -0.20976654 0.09266837 0.2346934 -0.20585465 -0.25295228 0.0954873 0.03405601
-0.044178616 -0.2032401 -0.21377058 0.12462843 0.019744396 0.018081358 -0.097756006 0.25056297
0.13531508 -0.24414499 -0.091612734 0.10463196 -0.20474255 -0.26280883 -0.16146146 -0.119447686
-0.19741999 0.10386027 0.082315825 -0.09975725 0.2652839 0.3368007 0.29585716 0.06334343
-0.027897485 0.28794038 0.13424715 -0.10829201 0.06656838 0.058726635 0.101664156 0.13771772
-0.13221765 0.1580393 0.09137665 0.14006908 -0.23985462 -0.04823881 -0.020579899 0.07451995
0.006199983 -0.19402377 0.0095564565 -0.12117539 0.22718643 -0.004282469 -0.22462542 0.059186134
-0.14416465 -0.03703486 0.052814588 -0.02483154 -0.14314723 -0.119901806 0.011302711 -0.09184084
-0.05874489 -0.05036765 -0.12501276 -0.14733967 0.04635887 0.012891009 0.2018156 -0.22676362
0.27533302 0.17439349 -0.096996896 -0.1894418 0.1898977 0.052406814 -0.041130837 0.16868943
0.11935645 0.06548918 0.15961358 0.018802864 -0.10410857 -0.14577544 -0.23001605 -0.28918302
-0.15906504 -0.18086888 -0.09374185 -0.23632427 0.045302607 -0.059450235 -0.12206167 -0.07441777
-0.044398803 0.13819093 0.08106305 -0.19527428 -0.08966439 -0.07848952 -0.22094272 0.12183191
0.10992715 0.21631397 0.14758062 -0.21498024 -0.03479334 0.22557922 0.062299278 -0.1675054
-0.17283249 -0.028228885 -0.11581503 0.1751336 0.13456813 -0.016200507 -0.23112634 -0.19054796
-0.17208548 -0.0914589 -0.23249115 0.06336949 0.05412832 -0.07350798 0.2446634 -0.14104433
-0.12177582 0.1426564 -0.06838559 0.14446576 0.07661345 0.105057165 0.10709389 0.21476303
0.23250808 0.22047658 -0.15066925 -0.053402793 0.0789226 0.097825944 0.16188404 -0.060084198
-0.07908481 0.12567395 0.19996597 -0.03969168 0.20256771 -0.10150676 0.11028547 0.23577435
0.037864704 -0.013626529 0.20325777 -0.22405481 0.18899938 0.1889182 0.2037141 0.19251023
00000000: eb7c 683e df27 dcbd 1660 3b3d 93b8 3e3d
00000010: 47f2 f6bd 91ae eabd 662e d7bd 0986 0fbe
00000020: 9dfa edbd 9008 2f3e bc2f 80bc cb95 063e
00000030: 3bef 303e 4d23 38bb 6e14 f23d 3b03 c5bd
00000040: da0c 643e e201 f93d 5b02 b5bc 3849 493e
00000050: 0e14 64bd ba13 85bc 78df 3e3e 2285 75bd
00000060: 30f6 d13d b394 a33e d06d 943c fb8c 66bb
00000070: a4c0 3fbe 5d0d 583c 645e 963d 2bce 1f3d
00000080: 6007 3c3e 37e3 4fbd 70f5 fd3d 47d3 bd3d
00000090: 2eb4 603e bc9d a4bd 4f76 123e eb2d 69be
000000a0: 7eeb 8f3d 2ad8 6fbe de57 45be 04ba 9fbd
000000b0: 0150 6ebd f91e 163e 29d2 413e c742 a03d
000000c0: d76a f2bd 8435 a73d f555 013e 2006 a4bc
000000d0: 1c5d 903d 7bd7 7e3e 6e2b 183e b500 73be
000000e0: 6d5e abbd 6771 1f3e 08d7 4dbe 0fdc 6fbe
000000f0: cf64 bcbd 8f11 8ebd 7c05 333d b8b8 5cbe
00000100: ab77 7bbd 3c12 f2bb fdca a5bd cde1 acbc
00000110: 1114 5c3e 12a7 5dbe 274a 83bd 8795 df3d
00000120: 8896 163e 05d4 7b3e de41 993e f74a 973e
00000130: 0f51 6cbe 2c75 483e f0e7 02be 72cb ae3d
00000140: e545 4f3d 2e39 8abe 2a50 2a3e fad4 15be
00000150: 493f 873e 8fc7 fdbb 0796 0d3d e6c3 223e
00000160: 5011 0e3e 1401 a8bd 7be3 073d e2b3 8b3d
00000170: 2e28 b93b 6885 08bd 2b49 72bd f1b7 5fbe
00000180: fde0 263e 0acd 56be eac8 bd3d 7753 703e
00000190: 90cb 52be f682 81be d88e c33d 517e 0b3d
000001a0: a3f4 34bd 2c1e 50be ade6 5abe 313d ff3d
000001b0: 00bf a13c 5b1f 943c 4d34 c8bd ca49 803e
000001c0: 0990 0a3e 2501 7abe 759f bbbd 4849 d63d
000001d0: 08a8 51be e18e 86be 2756 25be fda0 f4bd
000001e0: 7728 4abe b1b4 d43d 3395 a83d 874d ccbd
000001f0: 4bd3 873e 2471 ac3e 977a 973e 33ba 813d
00000200: 4489 e4bc ec6c 933e 1678 093e 34c8 ddbd
00000210: 0155 883d 578b 703d 4c35 d03d e005 0d3e
00000220: 1064 07be 0ed5 213e ae23 bb3d 456e 0f3e
00000230: 739c 75be 0f96 45bd 2d97 a8bc ea9d 983d
00000240: 3a29 cb3b 2bae 46be af92 1c3c ce2a f8bd
00000250: 8fa3 683e f453 8cbb 3504 66be 296d 723d
00000260: e69f 13be deb1 17bd 1c54 583d 846b cbbc
00000270: 3095 12be 148f f5bd 022f 393c 0d17 bcbd
00000280: 7b9e 70bd 4f4e 4ebd 5803 00be 36e0 16be
00000290: cce2 3d3d d034 533c c0a8 4e3e b934 68be
000002a0: 73f8 8c3e 3594 323e 4fa6 c6bd 08fd 41be
000002b0: 8b74 423e 87a8 563d cf78 28bd ecbc 2c3e
000002c0: 2871 f43d 311f 863d be71 233e 7708 9a3c
000002d0: e036 d5bd 2846 15be 5489 6bbe cc0f 94be
000002e0: f2e1 22be b135 39be bafb bfbd fdfe 71be
000002f0: 3a8f 393d 1782 73bd 78fb f9bd 5868 98bd
00000300: 85db 35bd ec81 0d3e 6204 a63d fbf5 47be
00000310: f7a1 b7bd 1dbf a0bd cf3e 62be 0283 f93d
00000320: 7c21 e13d 6981 5d3e 601f 173e c823 5cbe
00000330: 7683 0ebd 3dfe 663e 872d 7f3d 8986 2bbe
00000340: 00fb 30be 4340 e7bc 6e30 edbd 3956 333e
00000350: 3acc 093e edb6 84bc 62ac 6cbe 011f 43be
00000360: 2d37 30be ce4e bbbd 2912 6ebe ddc7 813d
00000370: a8b5 5d3d 5a8b 96bd 0b89 7a3e ed6d 10be
00000380: 9a65 f9bd 8514 123e bf0d 8cbd d5ee 133e
00000390: 83e7 9c3d 3628 d73d 0b54 db3d d7ea 5b3e
000003a0: 9916 6e3e 9dc4 613e 0a49 1abe e3bc 5abd
000003b0: 2ca2 a13d f858 c83d eec4 253e d91a 76bd
000003c0: 38f7 a1bd acb0 003e e1c3 4c3e be93 22bd
000003d0: e96d 4f3e c7e2 cfbd 59dd e13d d56e 713e
000003e0: 0518 1b3d ce41 5fbc ce22 503e a06e 65be
000003f0: 0e89 413e c673 413e 6e9a 503e 6721 453e

to_patch_embedding.2.bias f4 [64]
0.16658407 -0.17328627 0.0004445435 0.033899605 0.07008157 -0.04817538 0.034167442 -0.21660717
-0.23451442 -0.16062611 0.19640058 -0.14332426 0.19571821 -0.042490654 0.050227076 -0.141061
-0.13448037 -0.19177884 0.19299328 -0.14590353 0.07098319 0.01506241 0.09902368 0.12758939
0.03514421 -0.04661476 0.07773968 -0.15641005 0.124080904 -0.03211625 0.09528064 0.22059998
-0.013989904 0.17054382 -0.021242773 -0.14612179 -0.2161947 0.11507867 -0.0036169537 -0.024226328
0.15189259 0.08033364 0.07813652 0.045389943 0.023531353 -0.18659107 0.12540612 -0.024747342
0.16393925 -0.09381472 0.22609319 -0.16091946 -0.007958685 -0.1991007 0.20640011 -0.18177654
-0.019357344 0.026033208 -0.21611375 -0.084123425 0.038422283 -0.13723436 0.04180218 0.23009361
00000000: 0495 2a3e f571 31be 9e11 e939 50da 0a3d
00000010: ed86 8f3d 8c53 45bd 29f3 0b3d 45ce 5dbe
00000020: 8c24 70be 2c7b 24be 3c1d 493e 98c3 12be
00000030: 5b6a 483e ae0a 2ebd e8ba 4d3d 4b72 10be
00000040: 39b5 09be ac61 44be 08a0 453e bc67 15be
00000050: a25f 913d 54c8 763c edcc ca3d cba6 023e
00000060: 60f3 0f3d 1eef 3ebd fb35 9f3d f529 20be
00000070: 211e fe3d 548c 03bd 7f22 c33d f6e4 613e
00000080: e935 65bc 0aa3 2e3e 5305 aebc f3a0 15be
00000090: 2562 5dbe 5eae eb3d 6a0a 6dbb 4b76 c6bc
000000a0: bb89 1b3e f785 a43d 0a06 a03d ceea 393d
000000b0: d3c4 c03c bb11 3fbe 766a 003e f0ba cabc
000000c0: b1df 273e ef21 c0bd f984 673e 12c8 24be
000000d0: 2565 02bc 0ee1 4bbe 8d5a 533e a123 3abe
000000e0: 4b93 9ebc 9843 d53c ec4c 5dbe e748 acbd
000000f0: af60 1d3d 2a87 0cbe c338 2b3d a99d 6b3e

to_patch_embedding.3.weight f4 [64]
0.9663495 1.0160486 0.9761404 1.0270354 0.9840784 0.9514935 1.023217 0.9464881
1.0180144 1.0206691 1.018711 1.013456 0.9690129 0.88150364 0.901825 0.96263796
1.0422153 1.0124675 0.95053846 1.0328462 0.9582542 0.9786319 0.9471374 0.9634079
0.9220044 0.9510435 0.9771768 0.9698058 1.0108503 0.98794526 0.9457868 0.99916786
0.98168427 0.9997819 0.9695075 0.9872905 1.0199767 0.99070716 1.0007668 1.0135063
1.0147346 0.97916526 1.0481001 0.96894467 0.940493 1.0108002 0.9693684 0.94745404
0.9796365 0.91739035 1.0107545 0.9728496 0.9833572 0.984615 1.0005896 1.0005918
0.9490428 0.93989164 0.982427 0.99279034 0.9230086 0.9377497 1.0084108 0.98735166
00000000: ae62 773f e10d 823f 56e4 793f e575 833f
00000010: 90ec 7b3f 1495 733f c6f8 823f 0b4d 723f
00000020: 4c4e 823f 49a5 823f 1f65 823f edb8 813f
00000030: 3b11 783f 39aa 613f 01de 663f 716f 763f
00000040: 5067 853f 8998 813f 7d56 733f 4e34 843f
00000050: 2650 753f 9f87 7a3f 9977 723f e6a1 763f
00000060: 7b08 6c3f 9677 733f 4228 7a3f 3145 783f
00000070: 8b63 813f fbe9 7c3f 151f 723f 77c9 7f3f
00000080: a94f 7b3f b5f1 7f3f a531 783f 12bf 7c3f
00000090: 998e 823f fc9e 7d3f 2019 803f 93ba 813f
000000a0: d3e2 813f 93aa 7a3f 2528 863f c20c 783f
000000b0: 26c4 703f e761 813f 8728 783f 598c 723f
000000c0: 75c9 7a3f 18da 6a3f 6760 813f ac0c 793f
000000d0: 4cbd 7b3f bb0f 7c3f 5213 803f 6413 803f
000000e0: 78f4 723f bd9c 703f 5680 7b3f 8227 7e3f
000000f0: 4b4a 6c3f 5d10 703f 9b13 813f 14c3 7c3f

to_patch_embedding.3.bias f4 [64]
-0.07246314 0.0012353581 0.02122175 0.03156269 -0.002408206 0.030534003 -0.047156412 0.013121679
0.017263925 0.049770016 -0.0038352653 -0.026972115 -0.052064456 0.013065551 0.022008127 0.013007478
0.019344384 0.032722235 -0.060924564 0.003566695 -0.03620158 0.002358133 -0.013549168 -0.014049883
0.003181942 0.0026172933 0.020232406 0.07613638 0.034581374 0.017415632 -0.0041823294 -0.024615426
-0.016831923 -0.014725023 0.026327763 0.031572852 0.0069728284 -0.030173903 -0.0067461273 -0.033053584
-0.022133252 -0.03305493 0.022645267 0.009873581 -0.01652611 0.019504601 -0.020181326 -0.045184776
-0.04067113 0.047016054 -0.007246378 -0.0065109497 -0.03569269 0.034710422 -0.010737242 0.017177895
0.010023957 -0.017411066 0.038394824 -0.0035974195 0.05791325 0.059160307 -0.008459582 -0.068389714
00000000: 8e67 94bd bdeb a13a 3cd9 ad3c e147 013d
00000010: fed2 1dbb 7222 fa3c 1527 41bd 50fc 563c
00000020: 136d 8d3c a5db 4b3d 1359 7bbb a0f4 dcbc
00000030: 8a41 55bd e510 563c 634a b43c 511d 553c
00000040: 1d78 9e3c c007 063d 098c 79bd 36bf 693b
00000050: 1c48 14bd e88a 1a3b 54fd 5dbc 7b31 66bc
00000060: 2188 503b e586 2b3b 6ebe a53c 64ed 9b3d
00000070: 33a5 0d3d 3aab 8e3c ec0b 89bb 4aa6 c9bc
00000080: 1ae3 89bc 3941 71bc 52ad d73c 8952 013d
00000090: 537c e43b 432f f7bc 9e0e ddbb 3263 07bd
000000a0: cb50 b5bc 9b64 07bd 9182 b93c cdc4 213c
000000b0: c461 87bc 1dc8 9f3c 4f53 a5bc ac13 39bd
000000c0: c596 26bd e893 403d 0673 edbb ce59 d5bb
000000d0: 8032 12bd 842c 0e3d 42eb 2fbc a8b8 8c3c
000000e0: 863b 243c a7a1 8ebc e443 1d3d afc2 6bbb
000000f0: 7236 6d3d 1452 723d 0f9a 0abc e80f 8cbd

transformer.norm.weight f4 [64]
1.2235683 1.184701 1.1804621 1.2355915 1.2343875 1.2172194 1.3357168 1.1442369
1.266289 1.3113272 1.2083219 1.2123191 1.21745 1.1524982 1.2943933 1.2351016
1.1687258 1.1943233 1.1776904 1.1531072 1.2204478 1.21573 1.2867984 1.2460204
1.2541362 1.1532044 1.2691883 1.2031167 1.0888592 1.1169825 1.1430165 1.2147576
1.2692614 1.2710274 1.194877 1.2457894 1.3527986 1.0773602 1.2258757 1.236668
1.1958095 1.241804 1.3424159 1.275945 1.1349998 1.2719126 1.2838426 1.173252
1.2522008 1.1963633 1.2545373 1.2785169 1.3051256 1.2370547 1.2047503 1.198944
1.2123054 1.280583 1.1687732 1.21261 1.2100229 1.218351 1.1554933 1.1916342
00000000: e39d 9c3f 48a4 973f 6219 973f dd27 9e3f
00000010: 6900 9e3f d8cd 9b3f c5f8 aa3f 5b76 923f
00000020: c215 a23f 92d9 a73f 4baa 9a3f 462d 9b3f
00000030: 67d5 9b3f 1085 933f aeae a53f cf17 9e3f
00000040: cf98 953f 96df 983f 8fbe 963f 0499 933f
00000050: a237 9c3f 0a9d 9b3f cfb5 a43f 997d 9f3f
00000060: 8987 a03f 349c 933f c374 a23f baff 993f
00000070: bd5f 8b3f 48f9 8e3f 5d4e 923f 2d7d 9b3f
00000080: 2877 a23f 07b1 a23f bbf1 983f 0776 9f3f
00000090: 8128 ad3f f0e6 893f 7fe9 9c3f 234b 9e3f
000000a0: 4910 993f 6ff3 9e3f 49d4 ab3f 2a52 a33f
000000b0: ac47 913f 08ce a23f f454 a43f 1f2d 963f
000000c0: 1e48 a03f 6f22 993f ae94 a03f 71a6 a33f
000000d0: 5b0e a73f cf57 9e3f 4235 9a3f ff76 993f
000000e0: d32c 9b3f 25ea a33f 5c9a 953f ce36 9b3f
000000f0: 08e2 9a3f edf2 9b3f 34e7 933f 7887 983f

transformer.norm.bias f4 [64]
0.024119878 -0.033566527 0.011331507 -0.031219732 0.029866412 -0.0013834367 0.043141022 0.018372606
0.009618986 0.017117783 -0.005330096 0.011054328 -0.012179194 -0.0032199784 0.0012460648 0.004475857
0.0059936545 -0.010176806 -0.02579034 -0.04105363 -0.010518956 -0.016096164 -0.020975081 -0.020391207
-0.011443181 0.018669492 0.036044933 -0.022734422 -0.01730376 -0.014177885 0.010855321 -0.02525896
0.03661815 -0.010983644 0.0011662649 0.0010680796 0.04266588 0.028754223 0.032828555 0.0048510954
-0.037094463 0.033037014 0.0064011347 0.021976633 0.0023186826 -0.003960555 0.016792009 -0.0051411144
-0.008333989 0.03181485 -0.017843997 -0.006936678 -0.030225828 0.00017211336 -0.0076768193 0.02094322
-0.0047062985 0.017138701 0.0014472756 0.019623589 -0.009607727 0.011667934 -0.03678033 0.003466299
00000000: 0d97 c53c 0e7d 09bd c9a7 393c 86c0 ffbc
00000010: 68aa f43c 6f54 b5ba a4b4 303d 2682 963c
00000020: f498 1d3c 983a 8c3c 16a8 aebb 361d 353c
00000030: 3e8b 47bc 4606 53bb ff52 a33a 36aa 923b
00000040: 6b66 c43b 9ebc 26bc 4346 d3bc da27 28bd
00000050: b357 2cbc 1adc 83bc efd3 abbc 760b a7bc
00000060: 2e7c 3bbc c3f0 983c daa3 133d 8a3d babc
00000070: 9dc0 8dbc 5c4a 68bc 84da 313c e1eb cebc
00000080: eafc 153d bef4 33bc 5bdd 983a cefe 8b3a
00000090: 6bc2 2e3d fa8d eb3c 3c77 063d f0f5 9e3b
000000a0: 5df0 17bd d251 073d 9cc0 d13b 5708 b43c
000000b0: 0af5 173b 8bc7 81bb 658f 893c cb76 a8bb
000000c0: 498b 08bc 4a50 023d 932d 92bc 134d e3bb
000000d0: 289c f7bc 5479 3439 d48d fbbb 1e91 ab3c
000000e0: 4b37 9abb 7666 8c3c 83b2 bd3a a6c1 a03c
000000f0: ba69 1dbc dd2a 3f3c f9a6 16bd d92a 633b

transformer.layers.0.0.norm.weight f4 [64]
1.0176619 1.0419399 1.0705389 1.0455221 1.0642287 1.082867 1.0308526 1.035566
1.0347002 1.0656523 1.0366495 1.0543351 1.0456735 1.043612 1.0537813 1.0552238
1.0459912 1.0749136 1.0079094 1.0256662 1.0611912 1.0411407 1.0316269 1.0569341
1.0438914 1.0570427 1.044568 1.034982 1.0296646 1.0552789 1.0329922 1.0512946
1.0582892 1.0283929 1.0693415 1.0188468 1.0364443 1.0215993 1.0133654 1.045786
1.0412182 1.0640874 1.0868207 1.0452235 1.0467523 1.0471709 1.0300108 1.045985
1.077985 1.0527747 1.0342938 1.0860378 1.0569345 1.0582361 1.0632038 1.003928
1.1140673 1.0432303 1.0446541 1.0251964 1.0313061 1.0622584 1.0533046 1.066671
00000000: bf42 823f 495e 853f 6b07 893f abd3 853f
00000010: a538 883f 639b 8a3f faf2 833f 6d8d 843f
00000020: 0e71 843f 4b67 883f eeb0 843f 74f4 863f
00000030: a1d8 853f 1495 853f 4ee2 863f 9311 873f
00000040: 0ae3 853f c596 893f 2d03 813f 0849 833f
00000050: 1dd5 873f 1944 853f 5a0c 843f 9e49 873f
00000060: 3c9e 853f 2d4d 873f 67b4 853f 4a7a 843f
00000070: 0dcc 833f 6113 873f 1739 843f d290 863f
00000080: 0576 873f 61a2 833f 2fe0 883f 9269 823f
00000090: 35aa 843f c4c3 823f f5b5 813f 51dc 853f
000000a0: a346 853f 0434 883f f11c 8b3f e2c9 853f
000000b0: fbfb 853f b209 863f 65d7 833f d6e2 853f
000000c0: 6afb 893f 52c1 863f bd63 843f 4903 8b3f
000000d0: a149 873f 4874 873f 1017 883f b680 803f
000000e0: c299 8e3f 9288 853f 3ab7 853f a339 833f
000000f0: d701 843f 15f8 873f afd2 863f ad88 883f

transformer.layers.0.0.norm.bias f4 [64]
0.0098997755 0.009251291 -0.022358116 0.0098476745 0.021454832 -0.032309823 -0.009008873 -0.01815397
0.02271494 0.0016366561 -0.006089246 0.015822487 -0.010018684 0.01566661 0.010201914 -0.040249575
-0.013620334 0.009813056 -0.009240885 0.0061435536 0.003944675 -0.017554127 0.01178588 -0.00075318
0.021177778 0.0071782586 -0.0030752644 -0.008215467 -0.02472771 0.011865623 0.039171956 0.000518362
-0.010864544 0.007046592 -0.028101264 -0.008358412 0.0083992 -0.02915457 0.015893053 0.0022381803
-0.0004866176 -0.015416828 -0.0022185182 -0.008096671 -0.023588885 -0.0632635 0.021814913 0.006594204
0.054879665 0.005687351 0.0010458889 0.0299119 -0.02050408 -0.0059108357 0.021248303 -0.024049034
0.005085202 0.0018587247 -0.0043944046 0.042595975 0.014946694 -0.012317374 0.0061425343 -0.00723722
00000000: ab32 223c ba92 173c 5e28 b7bc 2458 213c
00000010: 0bc2 af3c 4e57 04bd f499 13bc a2b7 94bc
00000020: af14 ba3c 1185 d63a 4c88 c7bb 299e 813c
00000030: 6825 24bc 4357 803c ee25 273c bddc 24bd
00000040: d227 5fbc f1c6 203c 1567 17bc dd4f c93b
00000050: 5542 813b accd 8fbc 9019 413c 0e71 45ba
00000060: 057d ad3c 9937 eb3b 608a 49bb 2b9a 06bc
00000070: c491 cabc 0868 423c c672 203d afe2 073a
00000080: 3301 32bc 19e7 e63b 9f34 e6bc b9f1 08bc
00000090: cc9c 093c 91d5 eebc 2632 823c 6fae 123b
000000a0: b520 ffb9 dd96 7cbc 8f64 11bb e6a7 04bc
000000b0: 7a3d c1bc 4b90 81bd 30b5 b23c 3114 d83b
000000c0: 80c9 603d f55c ba3b 3516 893a cd09 f53c
000000d0: 2cf8 a7bc afaf c1bb ec10 ae3c 7b02 c5bc
000000e0: c4a1 a63b 74a0 f33a f0fe 8fbb 1e79 2e3d
000000f0: fae2 743c d0ce 49bc 5047 c93b 3426 edbb

transformer.layers.0.0.to_qkv.weight f4 [384, 64]
-0.017341688 0.060520653 -0.04578924 0.024158722 -0.07603996 0.15302265 0.12140418 0.087753676
0.012011896 0.11276696 0.07856568 -0.073171616 0.03380853 -0.0280922 -0.041607942 0.0030600314
0.10209453 -0.09989824 0.104075536 -0.08872768 0.03516376 -0.13485184 -0.103263944 -0.08722102
-0.12848969 -0.060444485 0.00547217 0.07891561 -0.021769017 -0.027886994 -0.104651295 -0.1622857
-0.056776628 -0.00747743 -0.038968645 -0.001911988 0.083618 0.14131497 0.05544104 -0.01475632
0.096559994 -0.123169005 -0.16969016 0.0031245768 0.08400818 0.09932174 -0.027657751 0.01246634
-0.0476446 -0.17395511 -0.057713497 0.07827685 0.10909524 0.15766248 0.053340264 -0.05784817
0.04730733 -0.065417804 -0.032247435 -0.03109821 -0.048918206 -0.0464177 -0.06752553 -0.013970259
-0.033023134 -0.080643535 -0.1294405 -0.06286309 -0.116303645 0.06170442 -0.02811166 -0.051370468
0.078517795 0.03012529 -0.13712105 0.17233832 -0.028432969 0.11774446 -0.110472865 -0.12146467
-0.075198226 -0.05992258 0.10843139 0.010381171 -0.11261171 -0.08485462 0.08027122 -0.12551248
0.09193545 -0.10099477 -0.1200694 0.15555054 0.038382005 0.04395073 0.1492398 0.056258947
0.1393532 0.14139959 -0.15607524 -0.061091643 0.039440904 -0.088587396 -0.03579063 0.12987815
0.042593528 -0.16975828 0.10354279 -0.12577085 -0.019474499 -0.086209126 -0.037816007 0.16944586
0.12174453 0.09489276 -0.06979869 0.08025851 -0.16941652 -0.0021339403 0.0783155 -0.10387725
-0.17283978 0.044309244 -0.12214563 0.13467492 0.014173125 -0.05798328 -0.074076384 0.037014894
0.061175194 -0.07265772 0.01889099 -0.0395539 0.034368776 0.01003289 -0.07331959 -0.051918775
-0.07960053 -0.06320807 -0.13392518 -0.08403984 -0.053992808 0.07972378 0.08469177 0.06198941
0.078018144 0.13872854 0.10245541 -0.09902828 0.06688872 0.08391 -0.006051232 0.011884811
-0.06392734 -0.070343375 0.12945108 0.011964957 -0.054230515 0.069125324 -0.111354895 -0.0047742478
0.08774549 -0.014066522 0.12794173 0.1608223 0.10745028 0.0028879223 0.12059757 -0.0872561
-0.010220839 0.021972235 -0.093757585 -0.13506147 -0.009647492 -0.069499865 0.033842683 -0.060466632
0.04728367 -0.04117541 -0.034788158 -0.035874605 -0.13311486 0.0898986 -0.1298995 0.09335007
-0.14133722 0.07009971 0.032981835 -0.041146602 0.047314923 -0.01686333 -0.12819824 -0.06773585
0.105752565 -0.04642601 0.0946591 0.099260464 0.04126655 0.014734591 -0.011203003 -0.037503142
-0.13269904 -0.0058304663 -0.111161724 0.09814725 0.006145495 0.013210967 0.008185877 -0.017429847
-0.1114283 -0.102476865 0.1327836 -0.11912083 0.07770448 0.013470985 0.011819839 -0.01584474
-0.07386101 0.06619897 0.04302376 -0.001480097 -0.009549862 0.1211878 0.11954675 0.048499357
0.091820955 0.030096816 0.0351197 0.0032503942 -0.09238927 -0.06537276 0.02022591 -0.09999836
0.07170482 0.041169595 -0.10410183 0.072409175 0.08397914 -0.12199345 0.0527837 -0.05233381
-0.0010033053 -0.0044060396 0.01206123 -0.021053469 0.091502 0.0007797375 0.08574389 0.09250929
0.029861461 -0.0148836905 0.026435573 -0.0063715796 -0.09422449 -0.029129216 0.08574238 -0.069473624
00000000: 2810 8ebc 81e4 773d 808d 3bbd 83e8 c53c
00000010: d7ba 9bbd f8b1 1c3e c1a2 f83d 33b8 b33d
00000020: 8bcd 443c 5df2 e63d 0be7 a03d 00db 95bd
00000030: d07a 0a3d 9d21 e6bc 176d 2abd cf8a 483b
00000040: f016 d13d 7397 ccbd 8e25 d53d dcb6 b5bd
00000050: e007 103d 9a16 0abe 0c7c d3bd efa0 b2bd
00000060: cd92 03be a394 77bd e44f b33b 829e a13d
00000070: f054 b2bc 4473 e4bc 6b53 d6bd 392e 26be
00000080: 9c8e 68bd 3b05 f5bb 969d 1fbd ac9b faba
00000090: ea3f ab3d dfb4 103e 2516 633d 7ec4 71bc
000000a0: 3fc1 c53d 0840 fcbd 42c3 2dbe b3c5 4c3b
000000b0: 7b0c ac3d 3269 cb3d 8292 e2bc 9f3f 4c3c
000000c0: fc26 43bd 4a21 32be fd64 6cbd 9d4f a03d
000000d0: 536d df3d 4672 213e 527b 5a3d 34f2 6cbd
000000e0: 55c5 413d c5f9 85bd e315 04bd acc1 febc
000000f0: 755e 48bd 7c20 3ebd d34a 8abd 83e3 64bc
00000100: 4443 07bd 7028 a5bd 0d8c 04be 5dbe 80bd
00000110: 9b30 eebd c6bd 7c3d 6d4a e6bc d769 52bd
00000120: f0cd a03d 50c9 f63c 7669 0cbe 7579 303e
00000130: 42ec e8bc 0224 f13d 993f e2bd 78c2 f8bd
00000140: 8701 9abd 6171 75bd 4711 de3d c915 2a3c
00000150: f8a0 e6bd 42c8 adbd 3d65 a43d 5886 00be
00000160: a748 bc3d 59d6 cebd f2e6 f5bd a448 1f3e
00000170: 7336 1d3d ae05 343d 51d2 183e c86f 663d
00000180: 9bb2 0e3e 0ecb 103e 30d2 1fbe 3b3b 7abd
00000190: c98c 213d 4f6d b5bd 3299 12bd c7fe 043e
000001a0: 8d76 2e3d 1dd5 2dbe 3e0e d43d 13ca 00be
000001b0: fc88 9fbc 698e b0bd f5e4 1abd 3783 2d3e
000001c0: 3255 f93d 2357 c23d 9ef2 8ebd 935e a43d
000001d0: 867b 2dbe 94d9 0bbb e063 a03d 98bd d4bd
000001e0: e9fc 30be 9c7d 353d 7d27 fabd 39e8 093e
000001f0: 6536 683c e07f 6dbd 5cb5 97bd ee9c 173d
00000200: d792 7a3d 92cd 94bd 47c1 9a3c 4503 22bd
00000210: 46c6 0c3d fe60 243c 9528 96bd c8a8 54bd
00000220: 9a05 a3bd 3c73 81bd af23 09be 141d acbd
00000230: 9027 5dbd 3946 a33d e172 ad3d 9ce8 7d3d
00000240: fac7 9f3d db0e 0e3e 24d4 d13d 57cf cabd
00000250: f4fc 883d 02d9 ab3d 6a49 c6bb 83b8 423c
00000260: 56ec 82bd 3010 90bd d38e 043e ab08 443c
00000270: d120 5ebd 9491 8d3d 090e e4bd 4b71 9cbb
00000280: e8b3 b33d 4577 66bc 2803 033e 9aae 243e
00000290: e40e dc3d 4c43 3d3b dcfb f63d 53b3 b2bd
000002a0: 4e75 27bc 1eff b33c fa03 c0bd 8e4d 0abe
000002b0: 8410 1ebc f255 8ebd a09e 0a3d dcab 77bd
000002c0: 86ac 413d 8ca7 28bd 077e 0ebd 40f1 12bd
000002d0: 434f 08be c21c b83d 6004 05be 522e bf3d
000002e0: b4ba 10be 7090 8f3d f617 073d 5789 28bd
000002f0: 4bcd 413d f724 8abc 6646 03be 18b9 8abd
00000300: cd94 d83d 3329 3ebd a1dc c13d 1249 cb3d
00000310: 1d07 293d 5b69 713c cd8c 37bc e59c 19bd
00000320: 42e2 07be 7f0d bfbb c2a8 e3bd 6d01 c93d
00000330: 2660 c93b d072 583c 0f1e 063c 0ac9 8ebc
00000340: 8534 e4bd 64df d1bd 6df8 073e 9ff5 f3bd
00000350: 8723 9f3d 68b5 5c3c ffa7 413c d4cc 81bc
00000360: 7144 97bd 5393 873d af39 303d d0ff c1ba
00000370: 0677 1cbc 4f31 f83d edd4 f43d 43a7 463d
00000380: a00c bc3d 998d f63c add9 0f3d 9104 553b
00000390: 9636 bdbd 27e2 85bd cfb0 a53c f1cb ccbd
000003a0: fad9 923d 73a1 283d 5733 d5bd 434b 943d
000003b0: 41fd ab3d b4d7 f9bd b933 583d fa5b 56bd
000003c0: 5781 83ba 8a60 90bb 779c 453c 5378 acbc
000003d0: 6765 bb3d 4c67 4c3a 7e9a af3d 8375 bd3d
000003e0: 06a0 f43c b9da 73bc 6a8f d83c afc8 d0bb
000003f0: c5f8 c0bd 65a0 eebc b399 af3d 3048 8ebd

transformer.layers.0.0.to_out.0.weight f4 [64, 128]
0.048479587 -0.07314885 -0.026929202 0.018343154 0.0063237804 -0.00043218178 0.09555479 0.01930343
0.08452974 -0.056149896 -0.07516256 0.040015128 0.0049820896 -0.028371818 -0.035284948 0.0431467
0.047942065 -0.051350538 -0.08479315 -0.016837008 0.11590349 0.11818783 0.08284701 0.015074581
-0.011151453 0.026245663 0.080684796 -0.01484948 -0.05726433 0.028678657 0.037168793 -0.07848411
-0.012036241 0.003302669 -0.042896274 0.06045352 0.06768074 0.06263413 0.0954387 0.012028579
-0.093725115 -0.06963952 -0.068542086 -0.015059169 0.037159413 0.027139986 0.027853616 0.025768766
-0.024748927 -0.030901883 -0.11254844 -0.07267152 -0.058690906 -0.0376498 -0.090766855 -0.049380876
-0.042571336 -0.01832986 -0.1031133 -0.01999812 0.017004415 0.0075093806 -0.07824863 0.06681004
-0.08291324 0.041290734 -0.046420146 -0.0035947394 0.005789906 0.01599008 0.039097734 0.053659994
-0.053293765 0.10915157 -0.07516977 0.12579852 -0.017021332 0.01808671 0.0074916463 0.07628413
0.07954948 -0.07445445 0.08809311 0.100433595 -0.031439777 -0.03797576 -0.049093127 -0.0037027579
-0.090322524 0.053108104 0.06991327 0.10576405 -0.10043475 0.094945714 -0.028485678 -0.08261488
0.04599846 -0.082884535 0.01024082 0.066038944 0.054964952 -0.077740185 -0.02522553 0.017909648
0.023882486 -0.0013459164 0.051869344 -0.054264124 -0.021449164 0.13484348 -0.08569105 0.13007483
0.038982946 0.012484604 0.0067948196 -0.022722 0.028657177 0.055179868 -0.04029082 -0.04832494
0.06284667 0.06484987 0.07775578 -0.0659726 0.05742212 -0.011520396 0.10093556 0.035977397
0.0955722 0.08123411 0.07457568 -0.041530684 0.03429213 0.06736235 -0.047587663 -0.038647056
0.027849998 -0.036287896 -0.055867966 -0.024838796 0.07007583 0.054420967 -0.06569144 -0.048003174
-0.046964016 -0.0882746 -0.09758491 -0.046883322 -0.058851965 0.012794058 -0.07095823 -0.12225121
-0.080353126 0.02977312 -0.00919289 0.066418044 0.070645295 0.022181377 0.024374994 0.027359344
0.099994406 0.107261606 -0.007462395 0.07457816 -0.023485381 0.07740938 -0.103658736 0.00789339
-0.061036605 -0.037550736 0.094634354 -0.054687947 0.083870284 -0.0315797 0.057339456 0.041776158
0.037135705 0.00119905 0.07846798 -0.06633794 0.01605934 0.07465175 0.13521491 -0.009415992
0.08898452 -0.019134235 0.037008572 -0.011464147 0.0032192226 0.07292551 0.04271385 -0.027698776
0.049798205 0.0061252024 -0.0320697 -0.044301793 0.00087838166 -0.07346921 -0.03457569 0.09154078
0.06829962 0.0033337392 0.11810717 0.05547292 -0.040796712 -0.063932784 -0.051660754 0.004362885
0.020979613 -0.022057423 0.09562847 0.10191 -0.064705424 0.043118842 0.08472228 -0.026945475
0.0071395417 0.055273674 0.0730159 -0.02039397 -0.031345334 -0.0047662924 -0.015039872 -0.034070678
0.105778955 0.06870249 0.074847244 -0.015446176 -0.059215255 0.03773857 -0.027470673 -0.07909599
0.10390806 0.0474278 -0.045894995 -0.04952774 0.013710164 0.012300863 -0.083529666 0.079620555
-0.02866542 0.020839086 0.042874828 -0.065294474 -0.05236978 0.07242476 -0.004302743 0.06344756
0.08859571 0.11678685 -0.051893167 0.027127156 -0.0031798165 0.00083454425 -0.060465794 -0.015628265
00000000: 8892 463d 10cf 95bd a19a dcbc 6244 963c
00000010: b737 cf3b 7596 e2b9 3bb2 c33d 3a22 9e3c
00000020: ee1d ad3d 6ffd 65bd d4ee 99bd e7e6 233d
00000030: cc40 a33b 046c e8bc f386 10bd 98ba 303d
00000040: e65e 443d f154 52bd 08a8 adbd c4ed 89bc
00000050: cf5e ed3d 760c f23d b1ab a93d 60fb 763c
00000060: 95b4 36bc 2501 d73c 123e a53d 3c4b 73bc
00000070: 018e 6abd 81ef ea3c 4e3e 183d 47bc a0bd
00000080: a733 45bc 9771 583b 01b4 2fbd 1c9e 773d
00000090: 339c 8a3d 5346 803d 5d75 c33d 8413 453c
000000a0: f4f2 bfbd 2a9f 8ebd cb5f 8cbd bcba 76bc
000000b0: 7834 183d ad54 de3c 442d e43c 0519 d33c
000000c0: 43be cabc f225 fdbc cc7f e6bd ced4 94bd
000000d0: e065 70bd ad36 1abd f9e3 b9bd 9a43 4abd
000000e0: 485f 2ebd 8128 96bc 112d d3bd 19d3 a3bc
000000f0: d84c 8b3c 4011 f63b d140 a0bd b4d3 883d
00000100: 6bce a9bd 7920 293d 0d23 3ebd b895 6bbb
00000110: 40b9 bd3b a1fd 823c f224 203d 95ca 5b3d
00000120: 904a 5abd dc8a df3d 9cf2 99bd 54d1 003e
00000130: 5270 8bbc 942a 943c 7c7c f53b db3a 9c3d
00000140: d6ea a23d 937b 98bd 296a b43d 21b0 cd3d
00000150: ffc6 00bd 788c 1bbd e015 49bd f8a9 72bb
00000160: 04fb b8bd e287 593d b02e 8f3d d29a d83d
00000170: bcb0 cdbd e672 c23d cc5a e9bc fd31 a9bd
00000180: e268 3c3d 5ebf a9bd 1dc9 273c 6d3f 873d
00000190: ee22 613d 3f36 9fbd c5a5 cebc 41b7 923c
000001a0: 34a5 c33c 7669 b0ba f374 543d 0f44 5ebd
000001b0: 28b6 afbc 6914 0a3e ca7e afbd 5632 053e
000001c0: 95ac 1f3d 398c 4c3c 14a7 de3b 7d23 babc
000001d0: 75c2 ea3c 4904 623d fd07 25bd 5ff0 45bd
000001e0: c1b5 803d 02d0 843d 6c3e 9f3d a41c 87bd
000001f0: 7533 6b3d 0bc0 3cbc 4eb7 ce3d 095d 133d
00000200: 5cbb c33d 125e a63d 22bb 983d 141c 2abd
00000210: e875 0c3d 46f5 893d 48eb 42bd 604c 1ebd
00000220: ae25 e43c 9ea2 14bd cfd5 64bd bb7a cbbc
00000230: eb83 8f3d 85e8 5e3d 3c89 86bd fa9e 44bd
00000240: 575d 40bd 50c9 b4bd 99da c7bd ba08 40bd
00000250: c20e 71bd 2b9e 513c 8c52 91bd d85e fabd
00000260: 2e90 a4bd c2e6 f33c c69d 16bc 2f06 883d
00000270: 7bae 903d b8b5 b53c 11ae c73c b420 e03c
00000280: dec9 cc3d f9ab db3d 1b87 f4bb 6fbc 983d
00000290: 6a64 c0bc cf88 9e3d 084b d4bd 4753 013c
000002a0: 8501 7abd cdce 19bd a8cf c13d 7800 60bd
000002b0: 2fc4 ab3d b759 01bd c7dc 6a3d 7a1d 2b3d
000002c0: 9c1b 183d 7129 9d3a d2b3 a03d 30dc 87bd
000002d0: e18e 833c 04e3 983d c775 0a3e 8845 1abc
000002e0: 843d b63d 66bf 9cbc 4d96 173d 1ed4 3bbc
000002f0: 98f9 523b f859 953d b8f4 2e3d 8be8 e2bc
00000300: 34f9 4b3d ecb5 c83b 855b 03bd cc75 35bd
00000310: 3243 663a 0677 96bd 3d9f 0dbd bc79 bb3d
00000320: ace0 8b3d dd7a 5a3b 2ce2 f13d 9337 633d
00000330: 741a 27bd 31ef 82bd 3a9a 53bd 88f6 8e3b
00000340: 70dd ab3c c5b1 b4bc dcd8 c33d 31b6 d03d
00000350: 4784 84bd 629d 303d e082 ad3d c2bc dcbc
00000360: d1f2 e93b a666 623d 5c89 953d 4111 a7bc
00000370: f763 00bd 8f2e 9cbb cc69 76bc b28d 0bbd
00000380: a3a2 d83d e4b3 8c3d 8349 993d f511 7dbc
00000390: b28b 72bd c293 1a3d 2d0a e1bc 14fd a1bd
000003a0: c0cd d43d a743 423d 64fc 3bbd 99dd 4abd
000003b0: 99a0 603c 8f89 493c 9a11 abbd 1a10 a33d
000003c0: bed3 eabc bbb6 aa3c 849d 2f3d 1cb9 85bd
000003d0: b281 56bd 6f53 943d 06fe 8cbb cbf0 813d
000003e0: ab71 b53d f22d ef3d ee8d 54bd c539 de3c
000003f0: 7864 50bb 51c5 5a3a fbaa 77bd d906 80bc

transformer.layers.0.0.to_out.0.bias f4 [64]
0.024844414 -0.0708443 -0.07493411 -0.034575183 -0.032489 -0.073509 -0.03501475 0.01405577
0.08886709 0.006828657 -0.03751003 -0.07956748 0.06380133 0.04219156 -0.025287202 -0.08187173
-0.017081955 0.06960317 0.038727716 0.04857492 0.057982907 -0.084565915 -0.006812828 -0.01934782
0.07632747 0.009342862 -0.066595964 0.0707928 -0.06546188 -0.028689038 0.008236385 0.054964177
-0.082079574 -0.08600282 0.053822014 0.049589477 -0.06395352 0.026469797 0.076619975 0.04501564
0.013337006 0.026509577 -0.027875744 0.081343204 -0.08563304 0.046587575 -0.048427597 0.04673479
-0.056999825 -0.0013676956 -0.025234783 0.078691535 0.03851444 0.07473881 0.003530032 0.04476203
-0.020559933 -0.027019229 0.023784567 -0.08017515 -0.061467394 -0.024336824 0.072768785 -0.010146903
00000000: 8386 cb3c d116 91bd 0e77 99bd b59e 0dbd
00000010: 3013 05bd e38b 96bd a06b 0fbd 2c4a 663c
00000020: f3ff b53d edc2 df3b 1ea4 19bd 46f4 a2bd
00000030: 46aa 823d 0fd1 2c3d 1b27 cfbc 5eac a7bd
00000040: 75ef 8bbc 1b8c 8e3d f4a0 1e3d 7ff6 463d
00000050: 7c7f 6d3d e530 adbd 253e dfbb 527f 9ebc
00000060: 9451 9c3d ce12 193c 7763 88bd d1fb 903d
00000070: e110 86bd 4605 ebbc e7f1 063c 1e22 613d
00000080: 5619 a8bd 3f22 b0bd 7974 5c3d 561e 4b3d
00000090: 10fa 82bd 30d7 d83c efea 9c3d 5262 383d
000000a0: 7583 5a3c 9d2a d93c ac5b e4bc 4497 a63d
000000b0: 6060 afbd 9dd2 3e3d 045c 46bd fb6c 3f3d
000000c0: a678 69bd 4044 b3ba 2db9 cebc 0729 a13d
000000d0: 51c1 1d3d a910 993d 1c58 673b 6458 373d
000000e0: 4e6d a8bc 6e57 ddbc dad7 c23c de32 a4bd
000000f0: 3cc5 7bbd 055e c7bc cd07 953d 323f 26bc

transformer.layers.0.1.net.0.weight f4 [64]
1.0248328 1.0146991 0.9865991 1.0698415 1.0518494 1.0351073 1.0421816 0.99294305
1.0472087 1.0045673 1.0056535 1.0697186 1.0139846 1.0377479 1.0332617 0.9783726
1.0397365 1.0001227 1.0121269 1.0183101 1.0410595 1.0898546 1.011346 1.0413685
0.99979305 1.0406756 1.0307533 1.0533577 1.0119969 0.99848485 1.0083072 1.0377805
1.0249968 0.97777796 1.0282701 1.047448 1.0901814 0.9504233 1.0481794 1.0276904
1.0188233 0.9905237 1.0841309 1.1036143 0.99442136 1.0448669 1.0634966 1.0162723
0.9852403 0.9898813 1.0829785 1.0027624 1.0625173 1.0115949 1.0976858 1.0197612
1.0954493 1.0844553 1.0020261 1.0294657 0.97696686 0.9929664 0.9800188 0.9706509
00000000: b92d 833f a9e1 813f c291 7c3f 91f0 883f
00000010: 00a3 863f 657e 843f 3566 853f 8431 7e3f
00000020: ef0a 863f a995 803f 41b9 803f 8aec 883f
00000030: 3fca 813f ecd4 843f eb41 843f a076 7a3f
00000040: 1616 853f 0504 803f 608d 813f fc57 823f
00000050: 7041 853f 5b80 8b3f c973 813f 904b 853f
00000060: 70f2 7f3f dc34 853f b9ef 833f 6dd4 863f
00000070: 1d89 813f b49c 7f3f 3610 813f fed5 843f
00000080: 1833 833f a84f 7a3f 5b9e 833f c712 863f
00000090: 108b 8b3f f14e 733f be2a 863f 5c8b 833f
000000a0: cd68 823f f692 7d3f cdc4 8a3f 3c43 8d3f
000000b0: 6692 7e3f 33be 853f a820 883f 3615 823f
000000c0: b538 7c3f dc68 7d3f 0a9f 8a3f 855a 803f
000000d0: 9100 883f f17b 813f f880 8c3f 8987 823f
000000e0: af37 8c3f 6ecf 8a3f 6442 803f 88c5 833f
000000f0: 801a 7a3f 0c33 7e3f 83e2 7a3f 947c 783f

transformer.layers.0.1.net.0.bias f4 [64]
-0.024267811 -0.029115118 0.02279628 -0.0045643826 0.032888822 0.016448917 -0.011248898 0.010680875
-0.0027085664 0.029120332 0.03824728 -0.0066322777 0.010504072 0.0065853414 0.017614152 -0.0059538684
-0.010810982 -0.0601376 -0.00056000706 0.027007997 -0.015603288 -0.008911679 -0.04156784 0.017144755
0.028246867 0.02499467 -0.01553885 0.0069266907 -0.006128436 -0.014405858 -0.0054202564 -0.008984803
-0.005010474 -0.0111209415 0.014176849 0.0005814725 -0.032867372 0.0645182 -0.0020311172 -0.02405591
-0.011968663 0.0047316616 0.0030361551 0.025380973 -0.015866347 -0.00731033 0.031061905 -0.0015715361
-0.059087757 -0.009870384 0.01077069 -0.014613811 -0.030990783 0.00848926 0.013200005 0.022610517
-0.0056669954 0.0017992127 -0.012539755 -0.0010925588 0.0023493036 0.005177416 -0.012454337 -0.0052578365
00000000: 4acd c6bc d482 eebc 44bf ba3c d190 95bb
00000010: 6eb6 063d e1bf 863c 4c4d 38bc d6fe 2e3c
00000020: 3482 31bb c38d ee3c 2ea9 1c3d 9453 d9bb
00000030: 4519 2c3c d9c9 d73b 8e4b 903c ab18 c3bb
00000040: 8c20 31bc d852 76bd 70cd 12ba e03f dd3c
00000050: efa4 7fbc 4a02 12bc 0a43 2abd 2873 8c3c
00000060: f965 e73c 9fc1 cc3c a996 7ebc 4bf9 e23b
00000070: 0cd1 c8bb 8c06 6cbc 689c b1bb ff34 13bc
00000080: e72e a4bb 9c34 36bc 0446 683c f56d 183a
00000090: f09f 06bd 1e22 843d 7e1c 05bb e610 c5bc
000000a0: 3618 44bc 0e0c 9b3b 3bfa 463b c2eb cf3c
000000b0: 24fa 81bc 7e8b efbb 8975 fe3c 00fc cdba
000000c0: 0106 72bd 64b7 21bc 8c77 303c c46e 6fbc
000000d0: 62e0 fdbc 8a16 0b3c d544 583c b139 b93c
000000e0: 34b2 b9bb 8fd3 eb3a 8b73 4dbc 3134 8fba
000000f0: c6f6 193b 50a7 a93b 470d 4cbc ee49 acbb

transformer.layers.0.1.net.1.weight f4 [64, 64]
0.10391262 -0.06536353 0.08963187 0.08961721 -0.020289823 -0.028676342 0.026661333 0.018695436
-0.14923453 0.0052513145 -0.123287626 0.04578257 -0.11050608 -0.024203641 0.039078195 -0.05486319
-0.04294699 0.12470318 -0.15029463 -0.074944474 -0.10090875 0.031042883 0.04158574 -0.09839444
0.0020465315 0.002732623 0.020496346 0.1275797 -0.103106655 -0.053610746 -0.10713698 0.0683575
-0.0075095687 -0.09758456 -0.077147946 0.13496009 0.037631948 -0.046250097 -0.09851242 0.09425237
0.028661834 -0.10671285 0.084092215 -0.11967045 0.10873221 0.13312156 -0.14164421 0.13421604
-0.116209604 -0.0019040643 0.019041792 -0.10858594 0.06525805 0.04782706 0.021793945 -0.09236364
-0.13643853 0.032425378 0.06385436 -0.12581673 -0.04292434 -0.114989266 -0.077422336 -0.035859182
0.1372514 0.18652755 -0.033307128 -0.09035262 -0.10523083 -0.025339834 -0.035336096 0.06424153
-0.13963957 -0.10059869 0.07741456 0.10289047 -0.058754735 -0.06003499 0.025915584 -0.03295644
0.07954069 0.10548582 0.10933607 0.021730313 0.074783094 0.12367532 -0.11618831 -0.06651778
0.026584316 0.07378586 0.052777562 0.021383567 0.02883404 -0.006710243 -0.09890655 0.15427451
-0.06560894 -0.09436383 0.10419555 -0.03973963 -0.04081022 0.04828885 -0.059913777 -0.033905514
-0.09656129 0.054498278 0.04834511 0.06720492 0.03821284 0.088542365 0.0189684 0.100176886
0.03181433 -0.109527595 -0.11291847 -0.0006127608 0.018780205 0.11766153 -0.0037768073 0.039282754
-0.066003345 -0.092316106 -0.052532226 -0.031895313 0.074768044 -0.13963692 -0.049504433 -0.11143975
-0.09484732 0.047130596 -0.010833305 -0.059478674 -0.08857993 0.10753119 0.039001267 0.03338045
-0.0060946466 -0.04572666 -0.005309345 0.06381587 -0.010092469 0.118383184 -0.029294882 0.050067816
0.017930083 0.117056236 0.1382148 0.08439262 -0.04983 -0.08217265 -0.045528673 0.002868084
0.013405839 0.073133014 0.093073934 0.04135826 0.06744953 -0.022403771 -0.048923597 -0.0177814
-0.026551794 -0.08888698 0.09629161 0.081418 0.057456955 -0.0877476 0.10577923 0.041717492
0.03976464 0.10918307 0.039826978 -0.01017796 -0.007189107 0.060877614 -0.099194475 0.096141696
-0.11543216 -0.051761884 -0.10225289 0.057638258 0.14335307 -0.03793899 0.029718446 0.08963179
0.083660774 0.107971646 0.056848332 0.09394542 -0.009494242 -0.09460293 -0.10279895 0.11363863
0.016437378 0.08867567 -0.012531355 -0.058433495 -0.04495776 0.031553242 -0.0678384 0.050732214
-0.1284912 -0.076164275 0.048631404 -0.0020314467 0.069359414 -0.07074179 -0.07070206 0.03932905
-0.08701001 -0.0006003624 0.0012060365 0.04494514 -0.10695409 0.0833084 0.017422859 0.10267214
-0.12973389 -0.006455344 0.06755728 0.027954366 0.035503756 0.061270416 0.06558689 -0.06204831
0.036595907 -0.030692665 -0.10094131 0.11391189 0.018216597 -0.012897243 0.07502233 0.06572158
-0.038476594 -0.08490874 -0.049907073 -0.027821178 -0.054806102 0.11941269 -0.008520395 -0.038040113
0.04480412 0.001938106 -0.07168226 0.043007866 -0.0432335 -0.09513912 0.07709947 -0.009609417
0.09674352 0.08982336 -0.015302387 0.09080519 -0.03756574 0.109037116 0.009656534 -0.069417834
00000000: 24d0 d43d 50dd 85bd ea90 b73d 3a89 b73d
00000010: d836 a6bc a6ea eabc de68 da3c 2c27 993c
00000020: f0d0 18be 3813 ac3b 397e fcbd 8186 3b3d
00000030: 0351 e2bd b746 c6bc 7510 203d 39b8 60bd
00000040: 2fe9 2fbd 6164 ff3d d6e6 19be 7d7c 99bd
00000050: 3fa9 cebd a54d fe3c cf55 2a3d 0683 c9bd
00000060: 1a1f 063b ce15 333b f4e7 a73c 41a4 023e
00000070: 9529 d3bd f196 5bbd a26a dbbd 04ff 8b3d
00000080: d412 f6bb 6ada c7bd beff 9dbd fa32 0a3e
00000090: f523 1a3d be70 3dbd e1c0 c9bd 6307 c13d
000000a0: 39cc ea3c 448c dabd 8a38 ac3d c815 f5bd
000000b0: feae de3d 0551 083e 2e0b 11be ee6f 093e
000000c0: 4dff edbd cc91 f9ba 88fd 9b3c 4e62 debd
000000d0: 03a6 853d 4fe6 433d 3789 b23c 2629 bdbd
000000e0: 8bb6 0bbe 79d0 043d 13c6 823d 1ad6 00be
000000f0: 6fd1 2fbd 7e7f ebbd 9a8f 9ebd 14e1 12bd
00000100: a28b 0c3e 1401 3f3e 0e6d 08bd cb0a b9bd
00000110: 4383 d7bd 7c95 cfbc 95bc 10bd 1091 833d
00000120: adfd 0ebe b006 cebd 868b 9e3d 3db8 d23d
00000130: cea8 70bd 40e7 75bd eb4c d43c 55fd 06bd
00000140: 3be6 a23d f308 d83d 97eb df3d c503 b23c
00000150: e127 993d 7c49 fd3d 23f4 edbd 793a 88bd
00000160: 5ac7 d93c 0a1d 973d 492d 583d 972c af3c
00000170: 5d35 ec3c 99e1 dbbb 848f cabd 23fa 1d3e
00000180: fb5d 86bd d341 c1bd 7a64 d53d 06c6 22bd
00000190: 9e28 27bd 87ca 453d 2668 75bd 82e0 0abd
000001a0: edc1 c5bd 9639 5f3d 8605 463d bca2 893d
000001b0: 1185 1c3d b355 b53d 9e63 9b3c 8a29 cd3d
000001c0: be4f 023d 0150 e0bd cc41 e7bd aea1 20ba
000001d0: f2d8 993c 87f8 f03d 5084 77bb f4e6 203d
000001e0: c32c 87bd 3a10 bdbd 082c 57bd a9a4 02bd
000001f0: fd1f 993d fbfc 0ebe 29c5 4abd 863a e4bd
00000200: 503f c2bd 030c 413d 2d7e 31bc e99f 73bd
00000210: 6569 b5bd 5039 dc3d cbbf 1f3d f0b9 083d
00000220: 9ab5 c7bb e14b 3bbd 04fa adbb e5b1 823d
00000230: e25a 25bc e272 f23d d2fb efbc e913 4d3d
00000240: 1ce2 923c 2ebb ef3d 2e88 0d3e 0ad6 ac3d
00000250: 8b1a 4cbd 224a a8bd 467c 3abd 77f6 3b3b
00000260: 2aa4 5b3c c3c6 953d 8c9d be3d 4767 293d
00000270: fb22 8a3d 1d88 b7bc 1c64 48bd 4caa 91bc
00000280: 2683 d9bc 610a b6bd 8934 c53d 7bbe a63d
00000290: fc57 6b3d 04b5 b3bd c8a2 d83d f6df 2a3d
000002a0: 3fe0 223d 609b df3d 9d21 233d 75c1 26bc
000002b0: 9a92 ebbb ce5a 793d 7926 cbbd f0e5 c43d
000002c0: b267 ecbd 4504 54bd f769 d1bd 1816 6c3d
000002d0: 26cb 123e ea65 1bbd 1974 f33c df90 b73d
000002e0: 5756 ab3d 3d20 dd3d ccd9 683d 7566 c03d
000002f0: bd8d 1bbc 2ebf c1bd 4288 d2bd 5fbb e83d
00000300: aea7 863c 979b b53d 5050 4dbc f657 6fbd
00000310: a125 38bd f93d 013d dcee 8abd 95cc 4f3d
00000320: 3293 03be 04fc 9bbd b931 473d 0522 05bb
00000330: 4f0c 8e3d 12e1 90bd 3ecc 90bd 7f17 213d
00000340: 4e32 b2bd a361 1dba df13 9e3a 6518 383d
00000350: bf0a dbbd 989d aa3d 62ba 8e3c c545 d23d
00000360: f6d8 04be 5a87 d3bb 795b 8a3d 8e00 e53c
00000370: 636c 113d b0f6 7a3d 6b52 863d 5e26 7ebd
00000380: 97e5 153d 2f6f fbbc 51ba cebd a34a e93d
00000390: f93a 953c f54e 53bc 4fa5 993d 0999 863d
000003a0: a299 1dbd a2e4 adbd 5c6b 4cbd 3de9 e3bc
000003b0: 5d7c 60bd a48e f43d 2099 0bbc f3cf 1bbd
000003c0: 8684 373d 0c08 fe3a 26ce 92bd 0429 303d
000003d0: 9c15 31bd 4dd8 c2bd 54e6 9d3d d170 1dbc
000003e0: 7721 c63d 4ff5 b73d ddb6 7abc 12f8 b93d
000003f0: 89de 19bd da4e df3d 7036 1e3c f02a 8ebd
